AE_graph_overfitting.pth (torch, 151170 bytes, 12 tensors)

encoder.0.weight f4 [85, 144]
0	0xbaa643c6	-0.0012684993
1	0xbe1aaedb	-0.15105765
2	0xbddaf0ef	-0.10690486
3	0xbdb6b8fd	-0.089220025
4	0xbd1b6f0e	-0.037947707
5	0xbcb32f2b	-0.021873077
6	0xbd936582	-0.071970955
7	0x3d4fc8d6	0.05072864
8	0xbdbcc001	-0.09216309
9	0x3d07bb14	0.033137396
10	0xbc9e8aac	-0.019353233
11	0xbcb3faee	-0.021970239
12	0x3cddb84e	0.027065422
13	0xbcdfa1d6	-0.02729885
14	0xbbf137ff	-0.0073614116
15	0x39a5e0a4	0.00031638623
16	0x3cafdc52	0.021467362
17	0x3d9c75c5	0.0763965
18	0xbca36a46	-0.019948136
19	0x3ce03a44	0.027371533
20	0x3d9de16a	0.0770901
21	0xbd0e1b4b	-0.034693997
22	0x3c8e012c	0.017334543
23	0x3d6ba85d	0.05753361
24	0xbd43bc12	-0.04778678
25	0x3d8be5c7	0.06830936
26	0x3bd54b11	0.0065091928
27	0xbc641d35	-0.013922979
28	0x3b037943	0.0020061291
29	0x3de26501	0.11054421
30	0xbd2019c4	-0.039087072
31	0x3dd6712f	0.10470807
32	0x3da3dad6	0.08000724
33	0x3d5f0126	0.054444455
34	0xbcab91d9	-0.020943569
35	0x3d7ecc02	0.062206276
36	0xbd18552c	-0.0371906
37	0x3c31eea7	0.010860122
38	0x3cfffad0	0.031247526
39	0xbc884f6d	-0.016639436
40	0x3d40a52d	0.047032524
41	0xbca4f426	-0.02013595
42	0x3d828403	0.063728355
43	0x3d0e2c0c	0.034709975
44	0x3c1eb738	0.009687237
45	0x3d064551	0.03278095
46	0xbd73b1e1	-0.05949581
47	0x3da970e6	0.08273487
48	0x3d036fca	0.032089032
49	0x3d3dbeb3	0.046324443
50	0x3d8d159d	0.06888888
51	0xbc33e5b8	-0.010980062
52	0x3d98e9a2	0.07466437
53	0xbd85ece8	-0.06539327
54	0xbc508a0c	-0.012728225
55	0x3d009f8e	0.031402163
56	0xbd81c2c7	-0.06335979
57	0xbd63d1a5	-0.055619854
58	0x3d7d5584	0.061849132
59	0xbd32a8dd	-0.04361807
60	0xb8a04041	-7.641363e-05
61	0x3c27ec5c	0.010249224
62	0x3dd5f480	0.10447025
63	0x3d047bef	0.032344755
64	0x3d3293e1	0.04359806
65	0x3d272ff8	0.04081723
66	0x3d46a7bd	0.04849981
67	0x3d93d425	0.07218198
68	0xbd3fd980	-0.046838284
69	0xbd3e6e28	-0.046491772
70	0x3a6f146a	0.00091201684
71	0xbd31a586	-0.043370746
72	0x3def1651	0.116741784
73	0x3ccaaf22	0.024741713
74	0x3dd91ee7	0.10601597
75	0x3c816d5b	0.015799215
76	0x3dc945fb	0.09827801
77	0x3c2c272f	0.010507389
78	0x3bb8e9af	0.0056430916
79	0x3d511b1d	0.051051248
80	0x3d576f5e	0.052596442
81	0x3da4d7ce	0.08048974
82	0x3b91589b	0.0044356114
83	0xbb2685c3	-0.0025409318
84	0xbd54aea7	-0.051924374
85	0x3cce6064	0.025192447
86	0xbe29fd8e	-0.1660063
87	0xbdc2fb74	-0.09520617
88	0xbdaf6226	-0.08563642
89	0xbd83b6b3	-0.064313315
90	0xbba8015d	-0.0051271156
91	0xbb0bf7dd	-0.0021357455
92	0xbc759108	-0.014988191
93	0x3d5a070e	0.053229384
94	0xbd0ee170	-0.034882963
95	0xbdaa41b7	-0.08313315
96	0xbd7d1111	-0.061783854
97	0xbd5e1d13	-0.054226946
98	0xbdce57ca	-0.10075338
99	0xbdbeb400	-0.09311676
100	0x3d1bf393	0.038074087
101	0xb940879a	-0.00018361062
102	0x3d425eaf	0.04745358
103	0x3c507517	0.012723229
104	0xbd9789f6	-0.07399361
105	0x3c895e3c	0.016768567
106	0xbcb72f85	-0.022361526
107	0xbd44673d	-0.04795002
108	0xbba370d9	-0.0049878177
109	0xbdb05596	-0.08610074
110	0xbd2bc0b3	-0.04193182
111	0xbd90f443	-0.07077839
112	0x3df116cc	0.11771926
113	0x3dd0ce8b	0.10195645
114	0x3def17be	0.1167445
115	0x3d93b288	0.072117865
116	0x3de01a02	0.109424606
117	0x3c2375a4	0.009976778
118	0x3d42be72	0.047544904
119	0x3cf6ccb7	0.030126913
120	0x3d65189e	0.05593168
121	0xbd1750dc	-0.036942348
122	0x3d50b036	0.050949298
123	0xbd67d77f	-0.056601997
124	0xbd22b954	-0.039727524
125	0xbd81c0ce	-0.06335603
126	0xbc5c44a6	-0.013444101
127	0xbc610340	-0.013733685
128	0xbdb42e40	-0.08797884
129	0xbce16831	-0.027515503
130	0xbc85d0b9	-0.016334878
131	0xbdd6ca40	-0.10487795
132	0xbd3b3112	-0.045701094
133	0x3d01e4c4	0.03171231
134	0xbd3789fe	-0.044809334
135	0xbd9bfb91	-0.07616342
136	0xbbf97b39	-0.0076135662
137	0x3d506264	0.050875083
138	0xbda03656	-0.07822864
139	0x3b9cb055	0.0047817626
140	0x3d047336	0.032336436
141	0x3c5c0206	0.013428217
142	0x3d174543	0.036931287
143	0x3ca5739a	0.020196725
144	0x3d3d824e	0.046266846
145	0x3d4856ea	0.048911013
146	0xbcfd287c	-0.030903094
147	0xbbf3b030	-0.0074367747
148	0xbda5cc0c	-0.080955595
149	0xbd47ba1b	-0.04876147
150	0x3c2ef608	0.010678776
151	0x3d9c81dd	0.07641957
152	0x3d8b5c49	0.06804711
153	0xb9f36300	-0.00046422333
154	0xbc9fe940	-0.019520402
155	0x3d23495a	0.039864875
156	0xbd755c2b	-0.05990235
157	0x3cbbb524	0.022913523
158	0x3c868e8c	0.016425394
159	0x3d3c5692	0.045980997
160	0xbd8b50a0	-0.068024874
161	0x3cb0ee7c	0.021598093
162	0xbbb94bf0	-0.0056548044
163	0xbda5e2aa	-0.08099873
164	0x3d1deee6	0.03855791
165	0x3d43610a	0.047699966
166	0xbd8ec932	-0.06971969
167	0x3d310082	0.043213375
168	0x3c4bb1c0	0.012432516
169	0x3d673b5e	0.0564531
170	0xbd7fd466	-0.06245842
171	0x3c8c1364	0.01709909
172	0xbda857d4	-0.08219877
173	0xbcba4ed6	-0.02274267
174	0x3d1381b2	0.03601236
175	0x3d8e8be3	0.06960275
176	0x3d5b3db6	0.05352565
177	0x3d241fe8	0.04006949
178	0x3d83611f	0.06415009
179	0xbd0eb5db	-0.0348414
180	0x3ce77b7c	0.028257124
181	0x3d4bb29a	0.049730875
182	0xbc802a60	-0.015645206
183	0x3d98e16d	0.074648716
184	0x3d049e02	0.03237725
185	0xbc9ee670	-0.01939699
186	0xbd530623	-0.051519524
187	0x3da46681	0.080273636
188	0xbd879227	-0.06619673
189	0x3d3bdc22	0.045864232
190	0x3d92c161	0.0716579
191	0xbc90b2a0	-0.0176633
192	0x3cff483c	0.031162374
193	0xbce6a3d0	-0.028154284
194	0xb88eb400	-6.804615e-05
195	0x3d94e49b	0.072701655
196	0x3d017b60	0.0316118
197	0x3d87aea9	0.06625111
198	0xbd5077d8	-0.050895542
199	0xbd577e30	-0.052610576
200	0x3bf9f9d0	0.007628657
201	0xbd76f570	-0.06029266
202	0xbd36872b	-0.0445625
203	0x3d93f393	0.072241925
204	0xbd3226a8	-0.043493897
205	0xbd5a7b58	-0.053340286
206	0xbda6bcde	-0.08141492
207	0x3d53c8ea	0.05170528
208	0xbcfc9d60	-0.030836761
209	0xbd108f66	-0.035293005
210	0x3d8714eb	0.06595787
211	0xbd3ffe3b	-0.046873312
212	0x3d86fa31	0.06590689
213	0xbd8ca232	-0.06866874
214	0x3ce5b9f0	0.028042763
215	0xbcad5590	-0.021158963
216	0xbc658318	-0.014008306
217	0xbd702fc6	-0.05863931
218	0x3d452e6e	0.048139982
219	0xbd2f6018	-0.04281625
220	0xbac61800	-0.0015113354
221	0xbd8c0f1f	-0.068388216
222	0x3d2579ee	0.040399484
223	0x3d0ff0ba	0.035141684
224	0xbd99ca48	-0.07509285
225	0xbca7c73c	-0.020480745
226	0xbb47d760	-0.0030493364
227	0x3d1f3fe0	0.038879275
228	0x3d92ef35	0.07174531
229	0x3d3368ba	0.043801047
230	0xbd810a7c	-0.06300828
231	0x3da8c65b	0.08240958
232	0x3c3fb7d8	0.011701547
233	0xbd977d46	-0.07396941
234	0x3d2b9132	0.041886516
235	0xbcd0a1b0	-0.025467724
236	0x3d083306	0.033251785
237	0x3d06de7e	0.03292703
238	0xbc96b92c	-0.018398844
239	0xbd6a194e	-0.05715304
240	0x3c6c7f18	0.014434598
241	0xbd91a813	-0.07112136
242	0x3d3834ea	0.044972338
243	0xbb5d3a80	-0.0033756793
244	0xbda5d6f0	-0.08097637
245	0x3ca68a70	0.020329684
246	0x3d9728fb	0.07380863
247	0xbbab9780	-0.005236566
248	0xbc49a600	-0.012307644
249	0x3d9583f1	0.073005565
250	0xbd0048be	-0.031319372
251	0x3d59925a	0.053118087
252	0xbb38d3a0	-0.002820231
253	0x3d67008e	0.056397013
254	0x3d06d032	0.032913394
255	0x3ca5208c	0.020157121

encoder.0.bias f4 [85]
0	0xbdad7f39	-0.084715314
1	0xbcc33716	-0.023829978
2	0x3d496540	0.049168825
3	0xbde26567	-0.11054497
4	0xb9e74100	-0.00044108182
5	0x3c0e41b8	0.008682661
6	0xbaa03a00	-0.0012224317
7	0xbd00e9da	-0.03147302
8	0x3d94e5a9	0.07270367
9	0xbd9deec6	-0.07711558
10	0xbc84c396	-0.016206544
11	0xbd9eaf7b	-0.07748314
12	0xbbc229d3	-0.005925396
13	0x3c5add08	0.013358362
14	0x3d51682f	0.051124748
15	0xbdc6d200	-0.09708023
16	0xbd7db1d6	-0.061937176
17	0xbd588a3b	-0.0528662
18	0x3c070448	0.008240767
19	0x3d0254be	0.031819098
20	0x3d7a928c	0.061174914
21	0xbcb3d10a	-0.021950264
22	0x3c9deba0	0.019277394
23	0x3d1473c1	0.036243204
24	0xbd9db1c0	-0.07699919
25	0xbda8ed34	-0.08248368
26	0xbd27c6ab	-0.04096095
27	0x3d66bc41	0.056331877
28	0xbd1ec648	-0.038763314
29	0xbe08a6b0	-0.13344836
30	0xbd77cb56	-0.06049665
31	0xbd3eb28b	-0.04655699
32	0xbc6ffc84	-0.014647607
33	0x3da2ed6f	0.07955443
34	0xbd7de8f8	-0.061989754
35	0xbcf72bdc	-0.030172281
36	0xbd266449	-0.040622983
37	0xbda571d0	-0.08078349
38	0x3c7e44b8	0.0155193135
39	0x3cca939b	0.024728587
40	0x3b9aaac0	0.004720062
41	0xbd5ae229	-0.05343834
42	0xbda3b04c	-0.0799261
43	0x3cb6f23e	0.022332307
44	0x3c82b1b0	0.015953869
45	0xbc2ae860	-0.010431379
46	0xbda2eea0	-0.0795567
47	0x3d9ffbd5	0.07811705
48	0xbd27cb00	-0.04096508
49	0xbc92a08d	-0.017898822
50	0xbc23f698	-0.010007523
51	0xbc1af248	-0.009457178
52	0x3ca42614	0.020037688
53	0x3c95169c	0.018199258
54	0xbd0d0d62	-0.03443659
55	0x3c843e0c	0.016142868
56	0x3d60c8fb	0.05487917
57	0xbd3c202b	-0.045929115
58	0x3d8d258a	0.06891926
59	0xbcde8f30	-0.027167886
60	0x3ce44580	0.027865171
61	0xbd6c8d13	-0.057751726
62	0xbe0926cd	-0.13393708
63	0xbd1424ca	-0.036167897
64	0x3d71a751	0.058997456
65	0x3c1fe9af	0.009760304
66	0xbd7ea644	-0.062170282
67	0xbd7c68ed	-0.061623503
68	0xbb9cc412	-0.0047841156
69	0xbd0ad85d	-0.033897746
70	0x3d058d70	0.03260559
71	0xbddea750	-0.10871756
72	0x3dbd74fe	0.0925083
73	0xbddb2bee	-0.10701738
74	0x3c8433ae	0.016137924
75	0xbb1e4e20	-0.0024155453
76	0x3a99ffde	0.0011749228
77	0x3d5709ba	0.05249951
78	0xbd0b7041	-0.0340426
79	0xbd2f4493	-0.042790007
80	0x3de3496b	0.11097988
81	0x3d30b1a2	0.043138154
82	0x3d60bf3d	0.05486988
83	0x3c2cb476	0.010541072
84	0x3d3ad7aa	0.04561583

encoder.2.weight f4 [51, 85]
0	0xbc105d05	-0.00881124
1	0x3d2783ce	0.040897183
2	0x3dda65df	0.106639616
3	0x3d9daa01	0.07698441
4	0x3dbb2da5	0.091395654
5	0x3d7415fa	0.05959127
6	0x3dd05f3f	0.10174417
7	0x3d9b731f	0.07590317
8	0xbc979110	-0.018501788
9	0xbc0bca55	-0.008532126
10	0xbd40858b	-0.047002356
11	0xbe2e9022	-0.1704717
12	0xbdd43b75	-0.10362903
13	0xbcbcea28	-0.023060873
14	0xbcdee03d	-0.027206535
15	0xbe1fd544	-0.15608698
16	0xbda2c312	-0.07947363
17	0x3b945fe0	0.0045280308
18	0x3cd34534	0.025789835
19	0xbd17b28e	-0.037035517
20	0xbcd92ca5	-0.026510546
21	0xbde88368	-0.11353189
22	0x3d2e26ed	0.04251759
23	0xbc5b3ab7	-0.013380698
24	0xbd114b4a	-0.035472192
25	0x3da42d2d	0.08016429
26	0xbe2395b7	-0.1597508
27	0xbe448c08	-0.19194043
28	0xbd66e44c	-0.056370065
29	0xbc7bf383	-0.015377882
30	0xbda9a4d2	-0.0828339
31	0x3a170100	0.0005760342
32	0x3bd89501	0.0066095595
33	0xbd956840	-0.07295275
34	0xbd65d44a	-0.056110658
35	0x3da68db4	0.081324965
36	0x3d8aaf21	0.067716844
37	0x3db2ad64	0.08724478
38	0xbd8fa7c1	-0.070144184
39	0xbd4d310f	-0.050095614
40	0xbdab8261	-0.08374477
41	0x3c15ea5e	0.009150116
42	0xbdc4f2a7	-0.09616595
43	0x39bc2bde	0.00035890838
44	0x3e0a6db9	0.13518418
45	0x3c524090	0.012832776
46	0xbd8542e7	-0.06506901
47	0x3d37fe3a	0.044920184
48	0xbe1f6089	-0.15564169
49	0x3cc38c92	0.02387074
50	0xbdc6e6ce	-0.09711991
51	0x3c2ee368	0.010674335
52	0x3dc3c2b5	0.09558622
53	0x3a626a00	0.0008637011
54	0xba817d22	-0.0009879211
55	0xbd6d929d	-0.05800115
56	0x3ab3d14d	0.0013718993
57	0xbd59f529	-0.05321232
58	0x3e065e73	0.13121967
59	0xbc73eb81	-0.0148876915
60	0xbd93bb94	-0.07213512
61	0x3c8217b0	0.015880436
62	0x3c0c2c15	0.008555432
63	0x3cf93f91	0.030425819
64	0xbcdd969c	-0.027049355
65	0xbdac7fa6	-0.084227845
66	0xbc610c6b	-0.013735871
67	0xbdb7eb90	-0.08980477
68	0xbd7a8eea	-0.06117145
69	0xbde2ca0a	-0.11073692
70	0xba9e0d80	-0.0012058467
71	0x3d6ec8a9	0.058296833
72	0x3dc05f6c	0.093932
73	0x39d78081	0.00041103738
74	0xbd8a6f6b	-0.067595325
75	0xbd7f72ec	-0.062365457
76	0x3dfe4630	0.12415731
77	0xbd117f38	-0.035521716
78	0x3cc06e90	0.02349022
79	0xbd826a95	-0.06367985
80	0x3d988d78	0.07448858
81	0x3d6ceba6	0.05784192
82	0x3d7cc4ba	0.06171105
83	0xbd36a0c0	-0.044586897
84	0x3d9731d0	0.07382548
85	0xbce99b3b	-0.028516402
86	0xbd01e598	-0.0317131
87	0xbdaad852	-0.08342041
88	0x3b97c7c4	0.004631968
89	0x3b8c5d20	0.0042835623
90	0xbdb1387e	-0.08653353
91	0x3d12c3de	0.035831325
92	0x3cf48afa	0.029851425
93	0x3c3c2e39	0.01148563
94	0x3db90545	0.09034208
95	0x3d27d00b	0.04096989
96	0xbc271a5a	-0.010199154
97	0x3dba85f1	0.091075785
98	0xbcd30aac	-0.025761925
99	0x3d0bb0d8	0.0341042
100	0xbdf837c3	-0.12120011
101	0xbd846958	-0.06465405
102	0xbdaf5032	-0.08560218
103	0xbdd0fdef	-0.10204684
104	0x3c833612	0.016016994
105	0xbdb60933	-0.08888473
106	0x3d2d34ac	0.04228656
107	0x3cab20ea	0.020889718
108	0xbc8d4e8c	-0.017249368
109	0xbd1b2a1c	-0.037881956
110	0xbce28be2	-0.027654592
111	0xbe0a684e	-0.13516352
112	0x3cfbbd9e	0.030730065
113	0xbdfd51d9	-0.12369127
114	0x3d00561e	0.031332128
115	0xbd87fd50	-0.066401124
116	0xbcb4f174	-0.02208779
117	0xbda09fb2	-0.078429595
118	0x3b85c0e0	0.0040818304
119	0xbd070492	-0.032963343
120	0xbdfed1a6	-0.12442331
121	0xbd6ce127	-0.05783191
122	0x3cce7e85	0.025206814
123	0x3da58349	0.08081681
124	0x393842b6	0.00017572459
125	0xbc28cf98	-0.0103034
126	0xbe070604	-0.13185889
127	0xbcda1d41	-0.026625277
128	0xbe1dd825	-0.15414484
129	0x3bc90d83	0.006135644
130	0xbd285bd6	-0.041103207
131	0xbdf8f344	-0.12155774
132	0x3a8024c0	0.0009776577
133	0xbd91ff37	-0.071287565
134	0xbd98cb09	-0.07460601
135	0x3d87f027	0.06637602
136	0x3dc33507	0.095315985
137	0x3cdc4ee4	0.026893087
138	0x3c888be4	0.016668268
139	0x3d941f09	0.07232482
140	0xbcecca79	-0.02890514
141	0xbd68f763	-0.05687655
142	0x3cf15704	0.029460438
143	0xbde698e9	-0.11259634
144	0x3d9d1010	0.07669079
145	0xbd3da8ee	-0.046303682
146	0xbcf90064	-0.030395694
147	0xbe34799d	-0.17624517
148	0x3d9f4656	0.077770874
149	0xbdb8f6c7	-0.09031444
150	0x3ccf8781	0.025333168
151	0xbc46fb26	-0.012144839
152	0x3da43fd7	0.08019989
153	0x3d146021	0.03622449
154	0xbe1103fc	-0.14161676
155	0xbcff6dd0	-0.031180292
156	0xbb9b4617	-0.00473858
157	0xbcb643e4	-0.02224917
158	0xbe06b42e	-0.1315467
159	0xbd9f321d	-0.0777323
160	0xbdba0c72	-0.09084405
161	0xbe08e33f	-0.13367938
162	0xbd91d32f	-0.07120358
163	0xba6371f5	-0.0008676344
164	0x3d085cd9	0.03329167
165	0xbccf0711	-0.025271924
166	0xbcc6d5c0	-0.024271846
167	0xbde79038	-0.113068044
168	0xbdf35d77	-0.118830614
169	0xbd236d4d	-0.03989916
170	0x3d8391ad	0.0642427
171	0xbdc416d9	-0.0957467
172	0x3d6f3876	0.058403455
173	0xbd77e1f4	-0.06051822
174	0x3d93a711	0.072096
175	0xbdaa792d	-0.08323894
176	0x3d7e13aa	0.06203047
177	0x3d2864a0	0.04111159
178	0xbddf96fb	-0.10917469
179	0xbdab7a3f	-0.08372926
180	0xbd507168	-0.050889403
181	0xbca9427e	-0.020661589
182	0x3d15d689	0.03658155
183	0x3dca0a39	0.09865231
184	0xbc5172c4	-0.01278371
185	0xbbdbc8be	-0.00670728
186	0xbda6688e	-0.08125411
187	0x3d80f86f	0.06297385
188	0x3d74c426	0.059757374
189	0xbd89ce54	-0.06728807
190	0x3d6e9af4	0.058253244
191	0xbc3902c9	-0.011292168
192	0xbd63f65d	-0.055654872
193	0xbc94ebc5	-0.01817883
194	0x3b8cbce0	0.0042949766
195	0x3d8338fa	0.06407352
196	0xbdae45e6	-0.08509426
197	0xbcac2a1b	-0.021016171
198	0xbd169ca5	-0.03677048
199	0x3c53e67e	0.012933372
200	0xbce79998	-0.028271481
201	0xbcf6c5ac	-0.030123554
202	0xbd870c79	-0.06594176
203	0xbc18d2a8	-0.009327568
204	0x3daebc08	0.08531958
205	0xbd049c99	-0.032375906
206	0x3d90c2c0	0.070683956
207	0x3c582287	0.013191826
208	0xbda67565	-0.0812786
209	0xbd6051bd	-0.05476545
210	0xbdb593ce	-0.08866082
211	0x3d3c9ce2	0.046048053
212	0x3dd9a913	0.106279515
213	0xbda681d7	-0.08130234
214	0xbdc91232	-0.098179236
215	0xbdbcc689	-0.09217555
216	0x3dbeb693	0.09312167
217	0xbcb482c4	-0.02203501
218	0xbccd5f9e	-0.025070008
219	0x3daabbfa	0.08336635
220	0x3d83047d	0.063973404
221	0xbd0e3d68	-0.03472653
222	0x3c223648	0.009900637
223	0x3d70b6c6	0.058768056
224	0xbdb7041d	-0.089363314
225	0xbd35d830	-0.044395626
226	0x3c5d6d3e	0.013514815
227	0xbdd58bb4	-0.10427037
228	0xbd807188	-0.06271654
229	0x3c0ebb64	0.00871167
230	0xbd58cdb3	-0.052930545
231	0x3dd1d2e5	0.10245303
232	0xbdc91664	-0.09818724
233	0xbdba16d1	-0.09086383
234	0xbdc153c8	-0.09439808
235	0x3dc38987	0.09547716
236	0xbd837acf	-0.06419908
237	0xbdeada60	-0.11467433
238	0xbd1241f5	-0.035707433
239	0xbde6c365	-0.11267737
240	0x3dc1e87d	0.09468172
241	0x3dc38108	0.09546095
242	0xbdc3256e	-0.095286235
243	0x3d0b16c8	0.033957273
244	0xbcb4ae50	-0.022055775
245	0x3d8e17f9	0.06938166
246	0xbda295f5	-0.07938758
247	0xbb8f1990	-0.004367061
248	0x3dc6c40a	0.0970536
249	0xbcf8a04e	-0.030349877
250	0xbc82eb23	-0.015981263
251	0x3da64641	0.081188686
252	0x3c1fe4ea	0.009759167
253	0x3be5663c	0.0070007127
254	0xbdb3104c	-0.08743343
255	0xbcf106fb	-0.029422274

encoder.2.bias f4 [51]
0	0xbd6ac64b	-0.057318013
1	0x3b74d51e	0.0037358473
2	0x3c01c187	0.007919676
3	0xbdc0b9ed	-0.094104625
4	0xbe2565bd	-0.16152091
5	0xbb8db7c4	-0.004324885
6	0x3d3bf9da	0.045892574
7	0xbc93bf8a	-0.018035669
8	0x38f645f4	0.00011743224
9	0x3cfd5a48	0.030926839
10	0xbc2f647d	-0.010705111
11	0x3cb21fb0	0.021743625
12	0xbd055a86	-0.032557033
13	0x3d792c4c	0.06083326
14	0xbd930e60	-0.07180476
15	0x3d673952	0.05645115
16	0x3d829894	0.06376758
17	0xbd4f7c45	-0.050655622
18	0x3c5a4d43	0.013324085
19	0xbd888552	-0.06666054
20	0xbe701f11	-0.23449351
21	0xbd3914be	-0.045185797
22	0x3ce6634c	0.02812352
23	0x3d440637	0.04785749
24	0x3d578f6c	0.052627012
25	0x3d00cd00	0.031445503
26	0xbd98fcf4	-0.07470122
27	0x3c854c33	0.016271686
28	0xbc0bdaf6	-0.008536091
29	0xbbfcd2c3	-0.0077155544
30	0x3d40c7f4	0.04706569
31	0xbd4ff7f9	-0.050773595
32	0xbe02cd1f	-0.1277356
33	0xbd8374a9	-0.064187355
34	0x3c9ffca6	0.019529652
35	0x3dbbd072	0.09170617
36	0xbdcc9cee	-0.099908695
37	0xbb13789c	-0.0022502309
38	0xbcfc9f4c	-0.030837677
39	0x3d83badd	0.06432126
40	0x3d049326	0.032366894
41	0xbd0646dd	-0.032782424
42	0x3d03e2c2	0.032198675
43	0xbce47349	-0.027887003
44	0xbe1a6722	-0.15078405
45	0xbde4d023	-0.111725114
46	0x3cf507fd	0.029911036
47	0xbd83220c	-0.06402978
48	0x3d86c9b2	0.06581439
49	0xbe1b7649	-0.15181841
50	0xbda1b261	-0.07895351

encoder.4.weight f4 [30, 51]
0	0x3d10f0bc	0.035385832
1	0x3dbfcfad	0.09365783
2	0x3e06072c	0.13088673
3	0x3c96c19c	0.018402867
4	0xbd7b98c8	-0.061425
5	0x3d8c923a	0.06863828
6	0x3da87d80	0.08227062
7	0xbd47cb82	-0.048778065
8	0x3e007d67	0.12547837
9	0x3d94b434	0.072609335
10	0xbc59dd67	-0.013297415
11	0x3ddd597d	0.10808084
12	0x3dfa869e	0.122327074
13	0xbdeb48fe	-0.114885315
14	0x3cd49fa8	0.025955036
15	0x3d63a520	0.055577397
16	0xbd9089b1	-0.070575126
17	0x3b4ddaa9	0.003141085
18	0x3b6a3c40	0.0035741478
19	0x3ca865ca	0.02055635
20	0x3e2d92af	0.16950487
21	0x3e1a9a46	0.15097913
22	0x3d962d9c	0.07332918
23	0xbe3f1dfd	-0.18663783
24	0x3cbff7b3	0.023433542
25	0xbcc5294c	-0.024067543
26	0x3cd7721c	0.026299529
27	0x3c1192e0	0.008885115
28	0x3e29137b	0.16511337
29	0xbc814d32	-0.01578388
30	0xbd79dc95	-0.06100138
31	0xbc1c6aed	-0.0095469775
32	0x3e3880de	0.18017909
33	0x3e13c2a4	0.14429718
34	0x3e3d0c62	0.18461755
35	0xbd163768	-0.036673933
36	0x3cc4763b	0.023982158
37	0xbcb0a09b	-0.021560958
38	0x3d92a1e2	0.07159783
39	0xbc660acd	-0.014040661
40	0xbdf389c3	-0.1189151
41	0x3e08b1af	0.13349031
42	0x3e5a164a	0.21297565
43	0x3d7f50d3	0.06233294
44	0x3deab43f	0.114601605
45	0xba72f408	-0.0009267931
46	0x3d7aec48	0.06126049
47	0xbd6a7ba1	-0.057246808
48	0x3ca15e22	0.019698206
49	0xbace0e10	-0.0015720744
50	0xbcf534f9	-0.029932486
51	0x3d6d4f87	0.05793717
52	0x3d9df66f	0.07713019
53	0xbc3e8952	-0.011629419
54	0x3c1c68bb	0.009546454
55	0xbd7365d9	-0.0594233
56	0xbdf74c05	-0.120750464
57	0x3db42694	0.08796421
58	0x3d42be80	0.047544956
59	0xbe149810	-0.14511132
60	0xbc932ab0	-0.01796469
61	0xbbde7d88	-0.006789867
62	0x3e0dee37	0.13860403
63	0x3da7d488	0.08194834
64	0xbe0dac9a	-0.13835374
65	0x3c06d033	0.0082283495
66	0xbc4299a0	-0.011877447
67	0xbde5a724	-0.1121352
68	0xbd1c639e	-0.03818094
69	0xbc0c1baf	-0.008551522
70	0x3d89891f	0.06715607
71	0x3cd1ff20	0.025634348
72	0x3c841c8f	0.016126899
73	0xbda394fd	-0.07987402
74	0xbca424c8	-0.02003707
75	0x3db4022e	0.08789478
76	0xbe062f64	-0.13104016
77	0x3dbe05a5	0.0927842
78	0x3dc9c04e	0.09851132
79	0xbdc3091e	-0.09523223
80	0x3d594cfe	0.05305194
81	0x3dd1cbd5	0.10243956
82	0xbc6fb061	-0.014629454
83	0x3d15c974	0.036569074
84	0xbddbf98c	-0.10740957
85	0xbca03ed1	-0.019561203
86	0xbe26a4b5	-0.16273768
87	0xbe03b349	-0.1286136
88	0xbe051bb1	-0.12998845
89	0x3dcabb18	0.098989666
90	0xbddc81a1	-0.10766912
91	0xbddb36c6	-0.107038066
92	0xbdc62f78	-0.09677023
93	0x3cbfa801	0.02339554
94	0x3d81def3	0.06341352
95	0xbdc69a5b	-0.0969741
96	0x39de9c24	0.00042459473
97	0xbdd688b3	-0.10475292
98	0xbd841a52	-0.06450333
99	0xbe1e87cd	-0.15481491
100	0x3daa889c	0.083268374
101	0xbd532fc9	-0.051559243
102	0xbe392d05	-0.1808358
103	0xbc62960a	-0.013829717
104	0x3d9d25ba	0.076732114
105	0xbcfda8c4	-0.030964263
106	0x3dc1d81d	0.094650485
107	0xbe05939b	-0.13044588
108	0x3d2face3	0.042889487
109	0xb9f45e36	-0.000466095
110	0xbddc1a38	-0.10747188
111	0x3d09d704	0.03365232
112	0xbe0b5b8d	-0.13609143
113	0x3dff4dc2	0.12466003
114	0x3e005ac1	0.1253462
115	0x3ab23e8a	0.001359896
116	0xbd37da21	-0.04488576
117	0x3df041c6	0.11731295
118	0x3d0f2cd5	0.034954865
119	0xbca3d69d	-0.019999797
120	0x3bbb75cc	0.0057208296
121	0xbe409b6a	-0.18809286
122	0x3c937efe	0.01800489
123	0x3da88cf7	0.08230012
124	0x3d2f8d80	0.042859554
125	0x3c2ae58d	0.010430706
126	0x3d92fc1c	0.07176992
127	0x3dc45e6e	0.095883235
128	0xbdc464fe	-0.09589575
129	0xbd88d933	-0.066820525
130	0xbd4b5263	-0.049639117
131	0xbc8eb0fe	-0.01741838
132	0xbda22c61	-0.07918621
133	0xbdacb697	-0.08433264
134	0xbe5af243	-0.21381478
135	0x3cd869e9	0.02641769
136	0xbdee3003	-0.11630251
137	0x3bf2d9de	0.0074112257
138	0xbdfcc0dd	-0.12341473
139	0x3e0c59ca	0.13706127
140	0x3be6baca	0.00704131
141	0x3d6c3213	0.057664942
142	0xbd1ba829	-0.038002167
143	0xbe06da81	-0.1316929
144	0xbe3d4e5a	-0.1848692
145	0xbdafd0ef	-0.08584773
146	0xbdfdd8d6	-0.12394874
147	0xbd811145	-0.06302122
148	0xbd92e842	-0.07173206
149	0x3cae8ae2	0.021306459
150	0xbbea565c	-0.007151408
151	0xbdf8908a	-0.12136944
152	0xbcb3b518	-0.021936938
153	0xbdaabcc7	-0.08336788
154	0x3d99acbf	0.07503652
155	0xbdcf2eb2	-0.10116328
156	0x3dd09db6	0.10186331
157	0x3d87c977	0.06630223
158	0xbdcdb756	-0.10044734
159	0x3d886278	0.066594064
160	0xbc847c92	-0.016172681
161	0xbdc1811c	-0.09448454
162	0x3deeadea	0.11654265
163	0xbcd7444d	-0.026277686
164	0x3d30374c	0.043021485
165	0xbe01215f	-0.12610386
166	0xbcbaf2f4	-0.022820927
167	0xbd6cb189	-0.0577865
168	0xbd9b0a2c	-0.075702995
169	0x3dbe82e9	0.09302313
170	0x3d31d23a	0.04341338
171	0xbd560c37	-0.052257743
172	0xbccbf8f2	-0.02489898
173	0xbd8c5716	-0.06852548
174	0x3dd933bc	0.10605571
175	0xbd484674	-0.048895314
176	0x3e1d454a	0.15358463
177	0xbdc49db6	-0.096003935
178	0xbd3f38d1	-0.046685044
179	0xbd9c6ae4	-0.07637575
180	0xbdafa933	-0.08577194
181	0xbd80ff6d	-0.062987186
182	0xbd424f5f	-0.047438975
183	0xbd332b3d	-0.043742407
184	0x3e0beccc	0.1366455
185	0xbb17e30d	-0.0023176104
186	0x3d477068	0.048691183
187	0x3d94153e	0.07230614
188	0x3d5db3b6	0.054126464
189	0xbc984280	-0.018586397
190	0x3d5ca91b	0.05387221
191	0x3aab7a3d	0.0013082694
192	0x3de95f97	0.113951854
193	0x3c65d013	0.01402666
194	0x3d2ba190	0.041902125
195	0xbd9ded22	-0.07711245
196	0x3d34ad17	0.044110384
197	0xbd6400e9	-0.05566493
198	0xbcf1c54e	-0.029513028
199	0x3dacc1be	0.08435391
200	0xbc8c56bf	-0.017131208
201	0xbc1d6f3b	-0.009609039
202	0x3e073035	0.13201983
203	0xbdf29219	-0.11844272
204	0x3dca6e03	0.09884264
205	0x3dd2b303	0.1028805
206	0x3d9957fd	0.074874856
207	0xbdcb3a92	-0.09923281
208	0xbd57f89a	-0.05272732
209	0x3d09d4fc	0.033650383
210	0x3d391d05	0.04519369
211	0xbd8ec871	-0.06971825
212	0x3e2c6e2e	0.16838905
213	0x3d3aeb2b	0.04563443
214	0xbe199b39	-0.15000619
215	0xbddca8fc	-0.10774419
216	0x3d87885a	0.06617804
217	0xbbf3e0c0	-0.007442564
218	0x3dda7cbf	0.10668325
219	0xbd65123e	-0.0559256
220	0xbd87d09f	-0.06631588
221	0xbc9d1a3f	-0.019177554
222	0xbd31d162	-0.043412574
223	0xbc67b61d	-0.01414254
224	0x3de66832	0.112503424
225	0x3e0b2d75	0.13591559
226	0xbd370d7e	-0.0446906
227	0x3cb9d77a	0.022685755
228	0xbd8fe09f	-0.07025265
229	0x3d6eb02c	0.05827348
230	0x3d8484bd	0.0647063
231	0xbd283e48	-0.04107502
232	0x3e411445	0.18855388
233	0x3cb73a5d	0.022366697
234	0xbcf41bb5	-0.029798368
235	0x3d14ecd5	0.036358673
236	0xbd34c98f	-0.044137534
237	0xbcbc1a7e	-0.022961851
238	0xbdcb10a5	-0.09915284
239	0x3e1368f8	0.14395511
240	0xbcc01172	-0.023445819
241	0x3d86465d	0.065563895
242	0x3dc5e3eb	0.096626125
243	0xbd911d4f	-0.07085668
244	0x3cddd669	0.027079778
245	0x3e3664f3	0.17811947
246	0x3debfb98	0.11522597
247	0x3d905714	0.07047859
248	0xbd8723c1	-0.065986164
249	0xbd315053	-0.043289494
250	0x3e0e678a	0.13906685
251	0xbe0a8c9b	-0.13530199
252	0x3d9abce0	0.07555556
253	0x3d6cab8a	0.05778078
254	0x3b8dd113	0.004327902
255	0x3d48dac4	0.049036756

encoder.4.bias f4 [30]
0	0x3cf89586	0.030344736
1	0xbcc755ed	-0.024332965
2	0x3d36a4a0	0.044590592
3	0xbb378cee	-0.0028007585
4	0xbc832d58	-0.016012833
5	0xbe2da733	-0.16958313
6	0xbddd011f	-0.107912295
7	0xbd3c51a2	-0.04597629
8	0x3cdb826a	0.026795585
9	0xbe42dee7	-0.19030343
10	0xbe115e06	-0.14196023
11	0xbcdf953b	-0.027292838
12	0x3e61841b	0.2202305
13	0xbe028794	-0.12747031
14	0x3e0debc7	0.13859473
15	0xbd0e4324	-0.034732
16	0x3df0fd0d	0.117670156
17	0xbce461ae	-0.027878609
18	0xbde7b09c	-0.113129824
19	0xbd7ecd64	-0.062207595
20	0xbce0b6b7	-0.027430875
21	0x3c2c2045	0.0105057405
22	0xbe1dc840	-0.1540842
23	0x3e16f317	0.14741169
24	0x3e2d08cc	0.16897887
25	0xbd303b8a	-0.04302553
26	0x3d8c15e0	0.0684011
27	0xbe1503fc	-0.14552301
28	0x3daeb34d	0.08530293
29	0xbde700a4	-0.11279419

decoder.0.weight f4 [51, 30]
0	0x3d6f3433	0.05839939
1	0x3e0ebbf0	0.1393888
2	0xbafc6fa7	-0.0019259349
3	0xbc9b534d	-0.01896062
4	0xbce279e8	-0.02764602
5	0xbdc6c33a	-0.09705205
6	0xbd3e9fbb	-0.04653905
7	0xbdc192d0	-0.094518304
8	0xbd181e34	-0.03713818
9	0xbdb2f6c7	-0.08738475
10	0xbcec7759	-0.028865503
11	0x3e508ffc	0.20367426
12	0x3e111a8d	0.14170285
13	0x3d974179	0.07385535
14	0x3d2a603b	0.04159568
15	0xbc6e3017	-0.014537833
16	0x3ce82ffa	0.02834319
17	0x3e6f5ad9	0.233745
18	0xbe019005	-0.12652595
19	0xbd44cbe1	-0.048045997
20	0xbc64df23	-0.013969216
21	0xbdc63724	-0.09678486
22	0x3d587892	0.05284936
23	0xbd3bd977	-0.045861688
24	0xbe6c9c3c	-0.23106474
25	0x3e099d81	0.13438989
26	0x3e3bf4bf	0.18355082
27	0x3e17091d	0.1474957
28	0x3e418565	0.18898542
29	0x3dece0c2	0.11566307
30	0x3e56503c	0.20929044
31	0x3d281fd7	0.04104599
32	0x3d1c65f7	0.03818318
33	0x3e6f1404	0.23347479
34	0xbdaf7c97	-0.085686855
35	0x3aab1aad	0.0013054215
36	0xbd078ff5	-0.033096272
37	0x3e14c830	0.1452949
38	0x3ce7e21f	0.028306065
39	0x3d6a4edc	0.057204112
40	0x3dc6ba4e	0.097035035
41	0x3df39ad7	0.11894768
42	0x3e42b159	0.19012965
43	0xbb81865a	-0.0039527835
44	0xbd108e1c	-0.035291776
45	0xbb92fbfd	-0.0044856058
46	0x3e1af8f0	0.15134025
47	0x3e08f02b	0.13372867
48	0xbc7e5852	-0.015523987
49	0xbdb5152e	-0.0884193
50	0xbd6f6eb6	-0.05845519
51	0x3c95447a	0.018221129
52	0xbdc6fe50	-0.09716475
53	0xbe1e0e36	-0.15435109
54	0x3da4446f	0.08020865
55	0x3dd527b9	0.10407967
56	0xbb8d7330	-0.00431671
57	0xbd5ec432	-0.054386325
58	0xbd33c6ec	-0.04389088
59	0xbe394768	-0.18093646
60	0xbd7931e8	-0.06083861
61	0xbcd65f98	-0.02616863
62	0xbd021424	-0.03175749
63	0x3e3650f0	0.17804313
64	0x3d830012	0.06396498
65	0xbddf28b2	-0.10896434
66	0xbe2f6e65	-0.17131956
67	0xbddd441c	-0.108040065
68	0x3e022c78	0.12712276
69	0xbd3b32d4	-0.04570277
70	0x3b535fc0	0.0032253116
71	0xbd5a4224	-0.053285733
72	0xbca9ad00	-0.020712376
73	0x3d97ec90	0.074181676
74	0xbd9fcff7	-0.07803338
75	0xbcafcde0	-0.021460474
76	0xbd83be21	-0.064327486
77	0x3e3ac024	0.18237358
78	0xbc0b63f0	-0.008507714
79	0x3dffa8c4	0.12483361
80	0x3d6e9718	0.058249563
81	0x3e357d9e	0.177237
82	0xbe00fcb7	-0.12596403
83	0x3ce64a08	0.028111473
84	0xbd82d4a7	-0.063882165
85	0x3e115886	0.14193925
86	0xbb9caf80	-0.0047816634
87	0x3afae900	0.0019142926
88	0x3e30a244	0.172494
89	0x3e35a0f0	0.17737174
90	0xbda8fb97	-0.08251112
91	0x3de36983	0.11104109
92	0xbdaeab6c	-0.0852879
93	0x3dc370f6	0.0954303
94	0xbc28e2a6	-0.010307943
95	0xbe38a543	-0.18031792
96	0x3dfcbc7d	0.12340639
97	0xbd82c600	-0.06385422
98	0xbe0cc10c	-0.13745517
99	0x3e019dca	0.12657848
100	0x3dc5e202	0.09662248
101	0x3d41d1c4	0.04731919
102	0xbd763355	-0.060107548
103	0xbd81c9b4	-0.063373
104	0xbe18a81f	-0.14907883
105	0x3b6104ca	0.003433513
106	0x3e07e8d4	0.1327241
107	0xbc46aabb	-0.012125666
108	0xbdf53575	-0.11973087
109	0x3e1365d2	0.1439431
110	0x3e64b14d	0.2233326
111	0xbd77c2f6	-0.060488664
112	0xbc29bf17	-0.010360501
113	0xbdf7178a	-0.120650366
114	0x3d595fde	0.05306994
115	0x3d3f530f	0.04671007
116	0xbaa1aa18	-0.0012334017
117	0xbda3580e	-0.079757795
118	0x3e062596	0.13100275
119	0xbe10b2d3	-0.14130716
120	0xba14b204	-0.00056722783
121	0x3d1caa78	0.03824851
122	0xbdb5fafe	-0.088857636
123	0xbc9cfe05	-0.019164095
124	0x3c38f0cb	0.011287878
125	0x3bd4b292	0.006491014
126	0x3bd39259	0.006456655
127	0xbe214d82	-0.15752223
128	0xbd97b086	-0.07406716
129	0x3cc59978	0.024121031
130	0xbdae903f	-0.085236065
131	0x3d36757f	0.044545647
132	0x3d860849	0.06544549
133	0x3e0fedd3	0.14055566
134	0x3d84becd	0.06481705
135	0xbdd18982	-0.10231306
136	0x3c919817	0.017772717
137	0x3df564fa	0.119821504
138	0xba0d8bbe	-0.00053995464
139	0xbd37ecb0	-0.044903457
140	0xbdff5024	-0.124664575
141	0xbdbe000c	-0.09277353
142	0x3e08670c	0.1332056
143	0x3c48e945	0.012262647
144	0xbd39a7ad	-0.045325924
145	0xbc8c3e2b	-0.017119488
146	0x3d9321fe	0.07184218
147	0x3e113bf2	0.14183024
148	0x3e726978	0.23673046
149	0x3d048ff8	0.03236386
150	0xbc3e692d	-0.011621756
151	0xbcc95beb	-0.024579963
152	0x3e181ded	0.14855166
153	0xbdf0ef14	-0.117643505
154	0xbca33d0a	-0.019926567
155	0xbe184bad	-0.14872618
156	0x3dfe73f5	0.12424461
157	0xbe05f04c	-0.13079947
158	0xbdca93b1	-0.09891451
159	0xbd2d584e	-0.042320542
160	0x3c62d4ed	0.013844711
161	0xbe03f8ef	-0.1288793
162	0xbdd1d8a7	-0.10246401
163	0xbe17c621	-0.14821674
164	0xbd116f83	-0.035506736
165	0x3da5e589	0.08100421
166	0x3e37a79d	0.17935033
167	0x3d277b50	0.040889084
168	0xbdc0951f	-0.094034426
169	0x3d717bf4	0.0589561
170	0x3e0446a7	0.12917577
171	0xbd52d331	-0.05147094
172	0x3d73b949	0.059502874
173	0xbdcba96b	-0.09944423
174	0xbe213ef4	-0.15746671
175	0x3df44200	0.11926651
176	0x3d3ed6ef	0.046591695
177	0x3c8aef2a	0.016959745
178	0x3c178492	0.009247916
179	0xbdff1d07	-0.124567084
180	0xbc9b51d2	-0.018959913
181	0xbdbabc6a	-0.091179684
182	0x3e2ce038	0.16882408
183	0x3d9c4dc3	0.07632019
184	0xbdaa0e83	-0.08303549
185	0x3de4792c	0.11155924
186	0xbe09da05	-0.13462074
187	0xbd3acc6f	-0.04560512
188	0x3d623aa9	0.055231724
189	0x3cab12b7	0.020882947
190	0x3cee73ab	0.02910789
191	0xbdfc2a1f	-0.123127215
192	0x3d2136b2	0.039358802
193	0x3d8cdb70	0.06877792
194	0x3e0d416c	0.13794488
195	0x3dcedeef	0.10101115
196	0x3c688429	0.014191666
197	0x3e14c8e8	0.14529765
198	0x3c4c8db6	0.012484958
199	0xbe0533f4	-0.130081
200	0xbd9f9154	-0.07791391
201	0x3c80937a	0.015695322
202	0x3dc94b8b	0.09828862
203	0x3d8e9fd2	0.06964077
204	0x3e12e134	0.1434372
205	0x3e29f2ae	0.16596481
206	0xbd3c5a61	-0.04598463
207	0x3e395367	0.18098222
208	0xbd70702c	-0.058700725
209	0x3d66b076	0.05632063
210	0x3d4f1537	0.05055734
211	0x3d9f47d2	0.077773705
212	0x3d11db6f	0.03560966
213	0x3e5ae65e	0.2137694
214	0x3e0ad182	0.13556483
215	0xbd663602	-0.05620385
216	0x3d8efe20	0.06982064
217	0x3d89d201	0.06729508
218	0xbdc6b3c2	-0.09702255
219	0x3e1f38fb	0.1554908
220	0xbc6fe56e	-0.014642103
221	0xbe1110ed	-0.14166613
222	0x3e2862ea	0.16443983
223	0xbdc197e1	-0.09452797
224	0xbe2152e1	-0.15754272
225	0x3d989302	0.074499145
226	0xbe20819d	-0.15674444
227	0x3d751ba5	0.059840817
228	0x3d0b7e7a	0.034056164
229	0xbd095ebb	-0.033537608
230	0xbdf656d8	-0.12028283
231	0xbd1a216f	-0.03762954
232	0xbe4f5dc5	-0.20250614
233	0xbd95224d	-0.07281933
234	0xbe22a2e9	-0.15882458
235	0x3e0a5b7d	0.13511463
236	0xbda10256	-0.07861774
237	0xbdbf03bf	-0.093268864
238	0xbe08cdf1	-0.1335981
239	0x3e227e5c	0.15868515
240	0xbd0bbd15	-0.03411587
241	0x3dd5e7ef	0.104446284
242	0x3ae24a34	0.0017264546
243	0x3e47c820	0.19509935
244	0xbdaee03c	-0.08538863
245	0x3d0e9c2f	0.034816917
246	0xbde91760	-0.113814116
247	0xbe236470	-0.15956283
248	0xbd96b44e	-0.07358609
249	0x3dd2fc91	0.103020795
250	0x3d6d88c5	0.05799176
251	0xbdf0c250	-0.11755812
252	0x3d8e599c	0.069506854
253	0x3cd3b40b	0.025842687
254	0xbccc6b28	-0.02495344
255	0x3e083e70	0.13305068

decoder.0.bias f4 [51]
0	0xbdd812cc	-0.1055046
1	0x3e1fcccc	0.15605468
2	0xbd79ee6a	-0.061018385
3	0xbdf1d4ea	-0.11808188
4	0x3d4dbd5b	0.05022941
5	0xbdb28526	-0.08716802
6	0x3ce685be	0.028139945
7	0xbd1f2768	-0.03885594
8	0x3e5df137	0.21674047
9	0xbe223c0e	-0.15843222
10	0x3e19bfdb	0.15014593
11	0x3ddc4a8c	0.10756406
12	0x3d9c8719	0.07642955
13	0xbd1fa1e4	-0.03897275
14	0xbe52f317	-0.20600544
15	0x3de2dd3d	0.11077354
16	0xbde87204	-0.11349872
17	0xbe1ae994	-0.15128165
18	0xbd7b2391	-0.061313216
19	0x3e13b24f	0.14423488
20	0x3e23a169	0.15979542
21	0x3dc20ea4	0.09475449
22	0xbd56e53e	-0.052464716
23	0xbcf94816	-0.030429881
24	0x3e0e2cd8	0.13884294
25	0xbe49773b	-0.19674389
26	0x3debcf4f	0.1151415
27	0xbe3f626b	-0.18689887
28	0x3e09a01f	0.13439988
29	0xbe13e762	-0.14443734
30	0x3e142379	0.14466657
31	0x3d9507c2	0.0727687
32	0xbd7f9466	-0.062397383
33	0x3e6e60a6	0.23279056
34	0x3dc11541	0.09427882
35	0x3ea685c2	0.32523924
36	0x3dc5f165	0.09665183
37	0x3d9562a9	0.072942086
38	0x3dd9d7d4	0.10636869
39	0x3dda1ea5	0.10650376
40	0xbd87f8c8	-0.06639248
41	0x3e420a4d	0.18949242
42	0x3e0f2771	0.1397989
43	0xbe7537e8	-0.23947108
44	0xbdf718c0	-0.120652676
45	0xbe8418a1	-0.2580004
46	0x3e85dba3	0.26144132
47	0xbd207c0a	-0.039180793
48	0x3dee7d33	0.116449736
49	0xbd63402b	-0.055481117
50	0xbe380c2d	-0.17973395

decoder.2.weight f4 [85, 51]
0	0x3e66d805	0.22543342
1	0xbd9ef3dc	-0.07761356
2	0xbd628df0	-0.055311143
3	0xbe0993e7	-0.13435327
4	0x3dc7b68c	0.09751615
5	0x3dce5e78	0.10076612
6	0x3ce058d1	0.027386101
7	0x3d68737a	0.056750752
8	0x3db10ec9	0.08645398
9	0x3d1aa2b0	0.037752807
10	0xbe1a6cbf	-0.15080546
11	0x3d00d14c	0.0314496
12	0xbe0c4f1c	-0.13702053
13	0xbda1d51c	-0.079019755
14	0xbdc29375	-0.095007814
15	0x3c3d470f	0.011552586
16	0x3dbc6f99	0.09200973
17	0xbdca65ae	-0.09882675
18	0x3dcefa15	0.10106293
19	0x3da84b9e	0.08217548
20	0xbe12e6a0	-0.14345789
21	0xbcf2ff60	-0.029662788
22	0xbe0651a1	-0.13117076
23	0xbd9beff5	-0.076141275
24	0xbddbafbb	-0.10726877
25	0xbe1d59d9	-0.15366305
26	0xbd33b70d	-0.043875743
27	0xbdf46ff6	-0.11935417
28	0x3b80cf59	0.0039309678
29	0x3d3feed9	0.046858642
30	0x3cd9d74a	0.026591916
31	0x3dc2c3e0	0.095100164
32	0xbd9609e4	-0.07326105
33	0xb9849d70	-0.00025294302
34	0x3dde1822	0.10844447
35	0x3e177645	0.1479121
36	0x3d36e0cc	0.044647977
37	0xbd4251b4	-0.0474412
38	0xbe1f3555	-0.15547688
39	0x3d975c8d	0.073906995
40	0x3daff9c2	0.085925594
41	0x3d0fa728	0.035071522
42	0x3dd09658	0.10184926
43	0x3e1e735b	0.15473692
44	0x3db57cc6	0.08861689
45	0xbd84288a	-0.06453045
46	0x3e003156	0.1251882
47	0xbd81ad74	-0.06331912
48	0x3cda0d66	0.026617717
49	0x3e08379e	0.13302466
50	0xbdfbca5c	-0.12294456
51	0xbde59eb4	-0.11211911
52	0x3d3c2206	0.045930885
53	0xbcd59014	-0.026069678
54	0xbc6c66f0	-0.014428839
55	0x3df154e6	0.11783771
56	0x3bc844e0	0.006111726
57	0xbdca7cf0	-0.09887111
58	0x3d4f0cac	0.050549194
59	0x3df4ae1b	0.119472705
60	0xbd938e26	-0.07204847
61	0xbb074937	-0.0020643005
62	0x3d84e5a3	0.06489112
63	0xbd15278b	-0.036414664
64	0x3d88e7a7	0.06684809
65	0x3dd2bf7c	0.10290429
66	0xbdfc15b4	-0.12308827
67	0xbd868a60	-0.06569362
68	0xbdaf8750	-0.08570731
69	0xbd8e2e60	-0.06942439
70	0xbe29d521	-0.16585208
71	0xbe46cd02	-0.19414142
72	0xbe3ab570	-0.18233275
73	0x3d837468	0.06418687
74	0xbb8c4bc8	-0.0042814948
75	0xbd8f4bb5	-0.06996862
76	0x3d87b404	0.06626132
77	0x3d185df2	0.03719897
78	0x3bafa0a0	0.005359724
79	0xbe212c72	-0.15739611
80	0x3b1da440	0.00240542
81	0x3e84c372	0.25930363
82	0xbe029b30	-0.12754512
83	0x3da7a1e8	0.08185178
84	0xbdc8e2c0	-0.09808874
85	0xbc58da20	-0.013235599
86	0xbcfe3c71	-0.03103468
87	0x3dc98334	0.09839478
88	0xbe35c126	-0.17749462
89	0x3db1ca34	0.08681145
90	0x3d8382be	0.064214215
91	0x3e448932	0.19192961
92	0xbd59b181	-0.053147797
93	0xbd440cfb	-0.04786394
94	0x3e309aa3	0.17246489
95	0xbcf4496c	-0.029820167
96	0x3e33e8df	0.17569302
97	0xbddbaec5	-0.10726694
98	0x3db90357	0.0903384
99	0x3dcb0368	0.09912759
100	0x3e452a63	0.1925445
101	0x3d7130f4	0.058884576
102	0x3e1061bd	0.14099784
103	0xbdd4cfd3	-0.10391202
104	0xbd8c0fa7	-0.06838923
105	0xbd96d872	-0.073655024
106	0xbe1efbc8	-0.15525734
107	0x3ce765a1	0.028246703
108	0xbda7ae36	-0.08187525
109	0x3da9cb37	0.08290713
110	0xbc8eb284	-0.017419107
111	0x3c6e3520	0.014539033
112	0xbde1edd5	-0.11031691
113	0xbe073f3f	-0.1320772
114	0xbe2957da	-0.16537419
115	0x3c5f2d3e	0.013621626
116	0xbd17a390	-0.03702122
117	0x3d1c2542	0.03812147
118	0x3ce2d682	0.027690176
119	0x3b69b3c0	0.0035660118
120	0x3d03e911	0.03220469
121	0xbdaef15a	-0.08542128
122	0xbe12c8b8	-0.1433438
123	0x3d60bb9a	0.05486641
124	0x3cc4ac5c	0.024007969
125	0xbdef7923	-0.11693027
126	0xbd754efd	-0.059889782
127	0xbd6a59bd	-0.057214487
128	0xbaab7670	-0.0013081562
129	0xbc8bf7cd	-0.017085934
130	0xbdcaccd5	-0.0990235
131	0xbde31791	-0.11088479
132	0xbc894e72	-0.016761038
133	0xbd9d22cc	-0.076726526
134	0xbd938410	-0.07202923
135	0xbd7e1ca2	-0.062039025
136	0xbe05e76e	-0.13076565
137	0x3ddbf171	0.10739411
138	0xbdd5d1f2	-0.104404345
139	0x3d4226e1	0.04740036
140	0x3cbdc7dd	0.023166591
141	0x3d660d97	0.056165304
142	0xbd45f1a9	-0.04832617
143	0xbe14123e	-0.14460084
144	0xbe346f2c	-0.17620534
145	0xbe386c5c	-0.18010086
146	0x3df30448	0.11866051
147	0xbe205d0b	-0.15660493
148	0x3ddab05f	0.10678171
149	0xbd1254d4	-0.03572543
150	0xbe25f9dd	-0.16208597
151	0xbdd7a082	-0.10528661
152	0xbd476ad2	-0.048685856
153	0x3cd1287e	0.025532003
154	0x3e0bce00	0.13652802
155	0x3df47b86	0.11937623
156	0xbdbddd2c	-0.09270701
157	0xbcdd0e4c	-0.026984356
158	0xbdcd41b6	-0.10022299
159	0x3d8d2831	0.068924315
160	0x3da067b0	0.07832277
161	0xbdc7792c	-0.097399086
162	0x3b2f0bc0	0.0026709884
163	0x3d0644a2	0.032780297
164	0x3d44b557	0.0480245
165	0x3d58651b	0.052830797
166	0x3dc550da	0.09634562
167	0xbd4c5fd6	-0.049896084
168	0x3d8d73fd	0.06906889
169	0x3dacb8a4	0.08433655
170	0xbd901c2f	-0.070366256
171	0x3e26e146	0.16296872
172	0x3cba9b4b	0.022779128
173	0x3db644c9	0.088998385
174	0xbd245262	-0.04011763
175	0xbde0a288	-0.109685004
176	0x3defa266	0.11700897
177	0x3dec32db	0.115331374
178	0xbc573c63	-0.013136956
179	0xbe0f7d8a	-0.14012733
180	0x3d769045	0.06019618
181	0xbd623920	-0.05523026
182	0x3cb5c68c	0.022189401
183	0x3e23a58f	0.15981124
184	0x3d2658df	0.040612098
185	0x3d241734	0.04006119
186	0x3de4f072	0.11178674
187	0xbe259b41	-0.16172506
188	0x3d70dfe5	0.058807272
189	0x3dd4782e	0.10374485
190	0x3dccb947	0.09996276
191	0x3c9d75eb	0.019221267
192	0x3d72f6ac	0.059317276
193	0x3dd8da61	0.105885275
194	0x3d402358	0.046908706
195	0x3b2a7c59	0.0026014058
196	0xbe0378fa	-0.12839118
197	0xbd8090a6	-0.062775895
198	0xbd354748	-0.044257432
199	0x3de28d85	0.11062149
200	0xbb88687b	-0.0041628457
201	0x3a98477f	0.0011617987
202	0x3d95f3e8	0.07321912
203	0xbddd8add	-0.10817502
204	0x3d993e7e	0.074826226
205	0xbdb86766	-0.09004097
206	0x3d5a3c38	0.053280085
207	0xbdca311e	-0.098726496
208	0xbdeab685	-0.11460594
209	0xbded355b	-0.115824424
210	0xbd479c76	-0.048733197
211	0xbdd61562	-0.10453297
212	0x3c2d6360	0.010582775
213	0xbda37ffc	-0.079833955
214	0xbcfe7a9b	-0.031064322
215	0x3bbd9d22	0.005786554
216	0xbe069072	-0.13141039
217	0xbca22987	-0.019795192
218	0xbaf01480	-0.0018316656
219	0xbd84bfb7	-0.06481879
220	0x3d96a06e	0.07354818
221	0x3cf024a0	0.02931434
222	0xbd73f098	-0.05955562
223	0xbcbfb90b	-0.023403665
224	0xbde5468d	-0.11195097
225	0xbe2b0b71	-0.16703583
226	0xbda56292	-0.080754414
227	0x3d83ce38	0.064358175
228	0xbd038c68	-0.032116324
229	0x3d82d8ac	0.06388983
230	0x3cd77c95	0.026304523
231	0x3ccfb0f0	0.025352925
232	0xbe280fc1	-0.1641226
233	0x3d54788c	0.051872775
234	0xbe0fbf38	-0.14037788
235	0x3da29316	0.07938211
236	0x3d014c70	0.031567037
237	0xbcc0f856	-0.023555916
238	0xbd2d4442	-0.042301424
239	0xbc8cccbb	-0.017187467
240	0xbd19dd6c	-0.03756468
241	0x3ceaf950	0.028683335
242	0x3d408732	0.047003932
243	0x3dc17158	0.09445447
244	0xbe043e16	-0.12914309
245	0xbde87834	-0.11351052
246	0xbe299e57	-0.16564308
247	0x3d88fc7e	0.06688784
248	0x3db3e052	0.0878302
249	0x3c2cb81a	0.01054194
250	0xbd422463	-0.047397982
251	0xbdf25e76	-0.11834423
252	0xbcbd2197	-0.023087306
253	0xbcc7bb4c	-0.024381302
254	0x3d8949d6	0.06703536
255	0xbe197237	-0.14984976

decoder.2.bias f4 [85]
0	0x3dbc6632	0.0919918
1	0xbdcaa61b	-0.09894963
2	0xbdd4222f	-0.103580825
3	0x3d73f15e	0.059556358
4	0xbca7a8ec	-0.02046629
5	0x3cdfe607	0.027331365
6	0xbdc48216	-0.095951244
7	0x3e09e8ca	0.13467708
8	0x3c86e5b0	0.016466945
9	0x3e84bf88	0.25927377
10	0xbdbb0e3f	-0.091335766
11	0xbe1eaa06	-0.15494546
12	0xbdf64468	-0.12024766
13	0x3ba3d548	0.0049997903
14	0xbe21a466	-0.1578537
15	0x3caeb6ac	0.02132734
16	0x3d81907a	0.06326385
17	0xbb2fdcb1	-0.0026834423
18	0x3e0beb49	0.13663973
19	0x3bdf57da	0.0068158926
20	0xbe1f3f5b	-0.15551512
21	0xbdfa879c	-0.12232897
22	0xbe0a5457	-0.13508736
23	0x3c4d0f18	0.012515806
24	0x3c1069c0	0.008814275
25	0xbe338633	-0.17531662
26	0x3d710f9b	0.058852773
27	0x3dd7266e	0.10505377
28	0x3d170fef	0.03688043
29	0xbd91357e	-0.07090281
30	0x3e4fa2f8	0.20277011
31	0xbbc78bef	-0.0060896794
32	0x3d052225	0.032503266
33	0xbe286d73	-0.16448002
34	0xbdfb20fc	-0.12262151
35	0x3e96c846	0.29449672
36	0x3d7fda83	0.06246425
37	0x3df23c62	0.11827923
38	0x3d760690	0.060064852
39	0x3da995f1	0.08280552
40	0xbc9e09f0	-0.019291848
41	0x3d68c692	0.056829996
42	0x3d2edbac	0.042689964
43	0x3d913013	0.070892476
44	0x3bf4ad80	0.007466972
45	0xbdc361d0	-0.09540141
46	0xbe125a5d	-0.14292283
47	0xbdcb645e	-0.09931253
48	0xbd1bc7cc	-0.038032338
49	0x3df2f811	0.11863721
50	0x3d978449	0.07398278
51	0xbdce9a08	-0.10087973
52	0xbd685547	-0.05672195
53	0x3dec45e9	0.11536772
54	0x3dc0fe28	0.094234765
55	0x3d8e5a6c	0.0695084
56	0xbe0509a7	-0.12991963
57	0xbde59ddc	-0.1121175
58	0xbdc994e5	-0.098428525
59	0x3da5a5a6	0.080882356
60	0xbe0938b6	-0.1340054
61	0x3e053f8e	0.13012525
62	0xbdd2dbb2	-0.1029581
63	0xbd783e9b	-0.06060658
64	0xbc8ecd48	-0.01743187
65	0xbdee88c2	-0.11647178
66	0x3db91591	0.090373166
67	0x3e2d9d75	0.16954596
68	0xbd0b0176	-0.03393694
69	0x3e191d9a	0.14952698
70	0xbb0c1ba7	-0.0021378787
71	0x3d870a94	0.065938145
72	0x3ce0a052	0.027420197
73	0xbcdee6c8	-0.027209654
74	0x3d8e37be	0.06944226
75	0x3dbed5e8	0.09318143
76	0xbe0b21c3	-0.13587098
77	0x3df88dbb	0.12136408
78	0x3e0f55eb	0.13997619
79	0x3d8d8a9e	0.06911205
80	0xbd7ba9a2	-0.06144107
81	0x3e84dd1b	0.2594994
82	0xbe03f2bb	-0.12885563
83	0x3dc8f4d8	0.09812325
84	0x3dacc73e	0.0843644

decoder.4.weight f4 [144, 85]
0	0xbe1f6c48	-0.1556865
1	0xbe250d5a	-0.16118374
2	0xbd822bad	-0.06355987
3	0x3dde94ea	0.10868247
4	0xbde19aa1	-0.11015821
5	0xbe373ce5	-0.17894323
6	0x3d9122a1	0.07086683
7	0xbdf241e1	-0.11828972
8	0xbd9affc0	-0.07568312
9	0xbcfc9de4	-0.030837007
10	0xbd885953	-0.06657662
11	0x3c0ae411	0.008477227
12	0xbd5c3293	-0.05375917
13	0x3d07c054	0.033142403
14	0x3cf57f72	0.029967997
15	0xbe3dcc70	-0.18535018
16	0x3d040c58	0.032238334
17	0x3d6e457f	0.058171745
18	0x3de4c794	0.11170879
19	0x3d1790fd	0.037003506
20	0xbcda131f	-0.026620446
21	0xbdafcd0b	-0.08584031
22	0x3dba247f	0.09088992
23	0xbdffc109	-0.124879904
24	0x3cfe1a04	0.031018265
25	0xbdc87842	-0.09788562
26	0xbcd7cad6	-0.026341837
27	0x3d9adba1	0.07561422
28	0x3af37346	0.0018573783
29	0x3d4b9448	0.04970196
30	0x3e195895	0.14975198
31	0x3dc0e85c	0.09419319
32	0xbd8d436a	-0.06897624
33	0x3c9226a6	0.017840695
34	0xbdca1dc8	-0.098689616
35	0x3da97be0	0.082755804
36	0x3d7c84d7	0.061650123
37	0xbd5e70dc	-0.05430685
38	0xbc468000	-0.0121154785
39	0x3e24c077	0.16089045
40	0x3d6ae706	0.057349227
41	0x3c358063	0.011077973
42	0x3d8a51bf	0.06753873
43	0xbe3fdce3	-0.18736605
44	0x3ddc1fc5	0.10748247
45	0x3aeeb000	0.0018210411
46	0xbdc524d4	-0.09626165
47	0xbe31aa81	-0.17350198
48	0xbcf1cdff	-0.029517172
49	0xbd854be3	-0.06508615
50	0x3d109604	0.035299316
51	0x3d8c5949	0.06852967
52	0xbdef347d	-0.11679933
53	0x3e86a03c	0.26294124
54	0x3e00ba39	0.12571038
55	0xbcf23886	-0.029567968
56	0x3dd60a69	0.10451204
57	0xbe8ad5f5	-0.2711636
58	0xbd294300	-0.04132366
59	0xbd0c6db2	-0.0342843
60	0xbd672d04	-0.056439415
61	0x3d73a18e	0.059480242
62	0x3ccd94b8	0.025095329
63	0xbd4a15a7	-0.049337056
64	0x3ddbd1dd	0.107333876
65	0xbdcc0c78	-0.09963316
66	0xbcc0a752	-0.023517285
67	0xbdaf8b93	-0.085715435
68	0xbe07ab5c	-0.13248962
69	0x3e092500	0.1339302
70	0x3de5b5cd	0.11216316
71	0x3b685f91	0.0035457353
72	0x3e012850	0.12613034
73	0xbd21038e	-0.03931003
74	0xbda85153	-0.08218636
75	0x3b887518	0.0041643493
76	0xbe781ad1	-0.2422898
77	0xbd89f717	-0.06736582
78	0x3d15316e	0.036424093
79	0xbd120e04	-0.035657898
80	0x3dcfd335	0.101477064
81	0x3d1704d7	0.03686985
82	0xbe76e0b6	-0.24109158
83	0x3da89683	0.08231833
84	0x3d4f1c49	0.050564084
85	0xbd93f2e1	-0.0722406
86	0xbdbb8054	-0.09155336
87	0xbd62661c	-0.05527316
88	0x3c6ca365	0.014443253
89	0xbdc179ba	-0.094470456
90	0xbdfdb667	-0.12388306
91	0xbd6d2dfc	-0.057905182
92	0xbc6cd553	-0.014455157
93	0x3d0fcfbe	0.035110228
94	0xbdba6899	-0.09101982
95	0xbd489f4f	-0.048980054
96	0xbcf127e1	-0.029437961
97	0xbe1b7fb3	-0.15185432
98	0x3db94403	0.09046175
99	0xbe124f41	-0.14288045
100	0xbc9efb88	-0.019407049
101	0xbd174eb9	-0.03694031
102	0xbd927ad1	-0.071523316
103	0x3dea8961	0.11451984
104	0x3e1bf9e0	0.15232038
105	0x3d667fa8	0.056274086
106	0x3c8f95c7	0.017527474
107	0x3ce5989c	0.028026871
108	0xbe39547b	-0.18098633
109	0xbd9e1150	-0.07718146
110	0xba9b1c0e	-0.0011833922
111	0xbe041a19	-0.1290058
112	0xbd5a92a9	-0.053362522
113	0x3d146a1f	0.036234017
114	0x3da0d576	0.078532144
115	0x3dc47521	0.09592653
116	0xbc5a24fa	-0.01331448
117	0xbe28f9bd	-0.16501518
118	0xbde136e6	-0.10996799
119	0xbd5cb19e	-0.053880326
120	0x3e327933	0.17429046
121	0xbdab07bc	-0.083510846
122	0x3dfc60b2	0.12323131
123	0x3ccf5380	0.02530837
124	0x3dddf697	0.10838049
125	0x3d533352	0.051562615
126	0x3a0d729e	0.00053958024
127	0x3c5237b8	0.012830667
128	0xbe213187	-0.1574155
129	0x3c3db848	0.011579581
130	0xbd38374c	-0.04497461
131	0xbd99e952	-0.075152054
132	0x3d03664c	0.03207998
133	0xbd31d25e	-0.043413512
134	0x3d23f183	0.040025245
135	0xbdbe8e0b	-0.09304436
136	0x3cb7d6ec	0.02244135
137	0x3be2f9f3	0.006926769
138	0x3e4f01d1	0.20215537
139	0x3e3bdb67	0.18345414
140	0xbdd2898c	-0.10280141
141	0xbdaab5f5	-0.08335487
142	0xbe3ab0c3	-0.18231492
143	0xbe05e85c	-0.1307692
144	0x3e046ea9	0.12932838
145	0xbdac21d6	-0.08404891
146	0x3d0ac2fd	0.03387736
147	0xbdaebafe	-0.0853176
148	0xbc7ea9cf	-0.015543415
149	0x3d1593a3	0.03651775
150	0xbdcb3180	-0.09921551
151	0x3bc5e919	0.0060397503
152	0x3dbe00d0	0.09277499
153	0xbe0cfa0e	-0.13767263
154	0xbd27bc26	-0.040950917
155	0x3bbc2356	0.005741517
156	0xba1692e5	-0.0005743935
157	0x3d78629d	0.06064092
158	0xbd0b146a	-0.033955015
159	0x3d02dbda	0.031947948
160	0xbb098223	-0.0020982109
161	0xbe278666	-0.16359863
162	0xbdd11137	-0.102083616
163	0xbd648ffd	-0.05580138
164	0xbe45d2fa	-0.19318762
165	0x3dcc7a53	0.09984269
166	0x3e092041	0.1339121
167	0xbe4d70db	-0.20062582
168	0x3d307add	0.04308592
169	0xbd3093f6	-0.043109857
170	0x3dba8764	0.09107855
171	0xbdf7f1e3	-0.12106683
172	0xbe4b46df	-0.19851254
173	0xbd8c172a	-0.06840356
174	0x3cd176c6	0.02556933
175	0xbdad5828	-0.0846408
176	0xbdae37c0	-0.08506727
177	0xbd899832	-0.06718482
178	0xbe1fc627	-0.15602933
179	0x3d5db4a2	0.054127343
180	0xbd9f6206	-0.07782368
181	0xbd118a01	-0.035532
182	0xbe1df3af	-0.15424989
183	0x3cffdff9	0.031234728
184	0xbddc3451	-0.10752166
185	0xbd769414	-0.060199812
186	0x3dcd835e	0.10034822
187	0xbd7c1974	-0.06154771
188	0xbc0a7a65	-0.008452033
189	0x3d3ff2da	0.04686246
190	0xbcfecd5b	-0.03110378
191	0x3d1505c6	0.03638246
192	0xbce5af43	-0.028037673
193	0xbba1e5b2	-0.004940712
194	0x3db0a63f	0.08625459
195	0xbd811529	-0.06302864
196	0x3d8f18dc	0.069871634
197	0x3d21cea8	0.039503723
198	0x3d9c3726	0.07627706
199	0xbdbfc640	-0.09363985
200	0x3d6f47a0	0.058417916
201	0x3d287a97	0.041132536
202	0xbce5aede	-0.028037485
203	0xbd930ecb	-0.07180556
204	0xbd9cfcb1	-0.076653846
205	0x3dd8d47b	0.105874024
206	0x3d0fe5fb	0.035131436
207	0x3da2abb8	0.07942909
208	0xbd3cc65a	-0.0460876
209	0x3da7508e	0.081696615
210	0xbdd44f61	-0.10366703
211	0xbd84170b	-0.064497076
212	0xbcce401c	-0.025177054
213	0x3d24e14d	0.040253926
214	0x3d55401e	0.0520631
215	0x3d8ec863	0.069718145
216	0xbc892411	-0.01674083
217	0xbd6d7907	-0.05797675
218	0xbd86361b	-0.065532885
219	0x3cbc165f	0.022959886
220	0x3dbe9214	0.09305206
221	0xbc6fd2d8	-0.014637671
222	0x3c1f5295	0.009724279
223	0x3d743c72	0.059627958
224	0x3de9c4da	0.114144996
225	0xbe2d075f	-0.16897343
226	0xbdaba288	-0.0838061
227	0xbe4a80cb	-0.19775693
228	0xbe20d631	-0.15706708
229	0xbd0f2616	-0.03494843
230	0xbd4b1da3	-0.04958881
231	0x3d84bab0	0.0648092
232	0xbd282a5d	-0.041056026
233	0xbe36eb90	-0.17863297
234	0x3cdb01da	0.026734281
235	0xbd55b0fb	-0.052170735
236	0xbe1023a3	-0.14076094
237	0x3d920444	0.0712972
238	0xbe307e10	-0.17235589
239	0x3c841c48	0.016126767
240	0xbc00f33e	-0.007870493
241	0xbda6571e	-0.08122085
242	0xbda7328b	-0.08163937
243	0x3dbfca81	0.093647964
244	0x3caa5075	0.020790318
245	0xbd8c8a9c	-0.06862375
246	0xbe13dd04	-0.1443978
247	0xbcd470c1	-0.025932672
248	0x3d4c3b97	0.049861517
249	0xbdbb8e70	-0.09158027
250	0x3d3c0d6a	0.04591123
251	0x3db2a474	0.08722773
252	0xbea3556f	-0.31901118
253	0x3e15d8eb	0.14633529
254	0xbcc2594d	-0.023724223
255	0x3cd41423	0.025888508
