AE_graph_no_overfitting.pth (torch, 151282 bytes, 12 tensors)

encoder.0.weight f4 [85, 144]
00000000: 973f 9b3e 52f8 8a3e ca6d bd3c 10a6 1c3c
00000010: 44ab acbe 81fb c5be e92d c8be bc39 94be
00000020: c0eb ebbe 0fbf 87be 364a a1be d6f8 7bbe
00000030: c946 a2be 5b03 24be 5394 99be cdce 86be
00000040: b277 b7be 6f90 80be 7ad9 ddbe 00bf dfbe
00000050: 2a66 a9be 9338 eabe a4c4 d4be e695 08bf
00000060: 4739 02bf 473c 8bbe 8bb7 5fbe b6a9 a4be
00000070: 003f 21be 2e9e 6abd a1e5 523c fc8f 8c3e
00000080: e79c 963e fe0d 913e d633 b33e 1e7f 923e
00000090: d6ae c23e 9f57 3a3e 22cc 8e3e 82c7 7f3e
000000a0: 252d ae3e b004 6b3e d93e 9b3d 9550 633e
000000b0: 36c1 0e3e f672 3e3e e237 4f3e c904 1a3e
000000c0: d623 a03e 1efe 783e f8c3 ce3e 0a3a d23e
000000d0: 4b59 af3e b1e2 ca3e 1ec8 c33e 27eb d23e
000000e0: dd28 1f3f 400f 323f 85ea 2a3f db7d 283f
000000f0: 8041 333f f235 213f 4221 183f 8121 343f
00000100: 8ad4 333f bc23 2e3f b19a 423f df4d 213f
00000110: b679 243f 6862 283f f281 f13e 03ff f93e
00000120: ea8b 7c3e 6ed9 883e b13b 8bbd ecce 2cbe
00000130: bda7 adbe 77d3 ebbe c643 e3be cdfe ecbe
00000140: f6fb 1abf 823a 62bf 6f12 4fbf 2b3f 61bf
00000150: d765 33bf 7570 64bf 8c96 21bf ffa2 2dbf
00000160: 203a 23bf b071 b0be 8700 bbbe e36a a5be
00000170: 3e95 9bbe de19 72be b8eb c5bd d5ac 59be
00000180: f0bf 94be 2351 3abe d3ff 4ebe 92f5 97be
00000190: 2616 30be c666 82be 055b 86be 360b b2be
000001a0: 710a bcbe 6d68 9cbe de3d e2be 117c b0be
000001b0: 6052 abbe f433 a8be 42ff 85be c367 f7be
000001c0: aae6 26be 87d6 53be 71d2 8cbe 73f9 29be
000001d0: 7a56 bbbc 5439 02bd 47a8 373e f62b 9f3c
000001e0: 1ffc 033e 0f81 1b3e 40d3 943e 74e8 b83e
000001f0: 1e09 bb3e fbf6 a03e b6a1 eb3e 2aae d93e
00000200: 46c9 ef3e 76e1 fb3e c3af d53e 3e60 183f
00000210: e019 a93e cef8 d13e c7fc ed3e 1a01 bf3e
00000220: aaf0 6f3e 0dc3 3a3e 67d0 423e d570 f33d
00000230: 5274 6d3d d0ad e5bd 8312 7dbe 565a c3be
00000240: 58e4 fdbd 3b51 50bd a18d a6bd 1585 9ebd
00000250: 6105 0f3d 25a7 893d 1f21 3b3e fd99 113e
00000260: 44d0 403e 85f4 313e ad1a d13c 1b5b 12bd
00000270: 6599 75bd 9797 4ebd 2359 06be 9607 57be
00000280: 77b2 82be 8ac8 23be f303 9cbe aa96 fbbd
00000290: 9c89 9cbd 9417 2ebb 8720 013e 1f56 e93c
000002a0: 9263 783d 10e7 b13e 1e32 923e 29c5 6d3e
000002b0: 6265 883e 4a7d 773e c91d 2c3e 714a 2e3e
000002c0: f2e9 77bd 0f91 0b3d 2336 f9bd f4df d0bd
000002d0: 5792 82be 21fc b8be 2d9b 85be 535b 16be
000002e0: be64 4fbe f251 3ebe bae5 60be 5f9a 59be
000002f0: 6486 e8bd eebf 09be 10a9 cf3c e32c 3d3c
00000300: 10ac 243e 7864 383e 29c2 903e 6c90 4b3e
00000310: 24d9 423e 146b 4e3e f81d ae3d a8fa 013e
00000320: f539 27bd 734b a33d 3517 43bd b80f 24be
00000330: 7ca9 30be 5c23 1f3c 9af4 57be bd53 5dbe
00000340: fcc6 30bd b82f 31be e2b7 22be 8b51 ebbd
00000350: 7832 253d c7c8 c8bc cac5 abbd 0122 ddbd
00000360: 1d91 e13b a457 10bc cf0e 2e3e d473 c73d
00000370: 4adc 733e be9f c13d a2f0 aa3d b336 983d
00000380: 7a2b c73d 1d28 0e3e e00e 58bc 79cf 3f3e
00000390: a9ea 0fbc 455a 58bc a5a6 c1bc 07ee 45bb
000003a0: 08cf 23bd 23da 38bd a241 ebbc 02ac 2fbd
000003b0: 8275 cdbd 0992 04be 6ce2 e1bd f13a a7bd
000003c0: d23c 06be 943c 70bd e3aa ac3d 7d3a 43bd
000003d0: a9ea 3f3d 9fbe d13d 09fe ca3d dfec 653e
000003e0: 0c65 373e 6734 433e 4f2e 4c3e db21 3d3e
000003f0: d330 f63d e5bd 7bbd 3cbb 993c ed7f c0bc
0.30321953 0.27142578 0.02312364 0.009561077 -0.33724415 -0.38668445 -0.39097527 -0.28950298
-0.460783 -0.26512954 -0.3150193 -0.24606642 -0.3169463 -0.16016905 -0.29995975 -0.2632965
-0.35833508 -0.25110194 -0.43329984 -0.4370041 -0.33085757 -0.45746288 -0.41556275 -0.53353727
-0.5086865 -0.27194425 -0.2184736 -0.3216073 -0.15746689 -0.05727976 0.012872131 0.274536
0.29416582 0.28330988 0.35000485 0.28612608 0.38024014 0.18197487 0.27890116 0.2497845
0.34018818 0.22951007 0.075803466 0.22198708 0.13940892 0.18598542 0.20236161 0.15040888
0.3127734 0.24315688 0.40383887 0.41059905 0.34247813 0.39626077 0.38238615 0.41195032
0.6217173 0.6955452 0.667641 0.6581704 0.7002182 0.6297294 0.5942575 0.7036362
0.70246184 0.68023276 0.7601729 0.63009447 0.64248216 0.65775156 0.47169453 0.4882737
0.24662748 0.26728386 -0.067984946 -0.1687581 -0.33917037 -0.46059772 -0.44387645 -0.46288148
-0.6054071 -0.88370526 -0.808875 -0.8798701 -0.7007727 -0.89234096 -0.6312034 -0.6782684
-0.63760567 -0.34461737 -0.3652384 -0.3230811 -0.303873 -0.2364268 -0.096641004 -0.21257336
-0.29052687 -0.18195014 -0.20214777 -0.29679543 -0.17195949 -0.25469035 -0.26241317 -0.34774178
-0.36726716 -0.3054842 -0.44187826 -0.34469655 -0.33461285 -0.32852137 -0.2617131 -0.4832135
-0.16298929 -0.20687304 -0.27504304 -0.16599064 -0.022868384 -0.031792954 0.17935286 0.019430142
0.12889145 0.1518595 0.2906742 0.36114848 0.36530393 0.3143843 0.46021813 0.4251569
0.46833247 0.4919545 0.41735658 0.59521854 0.33027554 0.41010135 0.46481916 0.37305528
0.2343165 0.18238468 0.19024812 0.118867554 0.05797226 -0.11214793 -0.24714093 -0.38154858
-0.12397069 -0.050858717 -0.08132482 -0.07740227 0.03491724 0.067213334 0.18274353 0.14218898
0.18829447 0.17378433 0.025525415 -0.035731416 -0.05996074 -0.050437536 -0.1311994 -0.20998988
-0.25526783 -0.15994468 -0.30471763 -0.12284596 -0.076434344 -0.0026564347 0.12610064 0.028483449
0.060641833 0.347466 0.2855386 0.23219742 0.2663985 0.24168888 0.16808237 0.17020585
-0.060525842 0.034073886 -0.12168529 -0.10198966 -0.25502273 -0.3612986 -0.26094952 -0.14683275
-0.20253274 -0.18585947 -0.21962634 -0.21250294 -0.11353758 -0.13452122 0.02534917 0.011546346
0.16081262 0.18007076 0.28273132 0.19879311 0.19028145 0.20158035 0.0850181 0.12693274
-0.040826757 0.07973375 -0.047629554 -0.16021621 -0.17252153 0.00971302 -0.21089402 -0.21613975
-0.043158516 -0.1730336 -0.15890458 -0.114901625 0.040331334 -0.0245098 -0.08387335 -0.10797501
0.006883754 -0.008809958 0.16997837 0.09738889 0.23814502 0.094542965 0.08346678 0.07432308
0.09725089 0.1388249 -0.01318714 0.18731488 -0.008783975 -0.013205116 -0.023639033 -0.003020169
-0.039992362 -0.045129906 -0.02871782 -0.04288865 -0.100321785 -0.12946333 -0.11029515 -0.08165539
-0.13109139 -0.05865152 0.084310316 -0.0476632 0.04685465 0.10241436 0.099117346 0.2245364
0.1790964 0.19062959 0.1993954 0.18469946 0.12021031 -0.061460394 0.018766038 -0.0234985

encoder.0.bias f4 [85]
00000000: eac2 85c0 406f 833f fc08 cdbf 69d3 b6bf
00000010: 733e 65c0 6fe0 5bc0 8bbc fcbf b7f8 80c0
00000020: e10f 6fc0 93c1 4bc0 983c 66c0 100f 09bf
00000030: 9ace 82c0 2249 3bc0 3e03 0ebf 1689 743f
00000040: 26fb c9bf e036 7dc0 476e d8bf 8fef 95c0
00000050: be92 2a40 c5e5 55c0 4f55 5fc0 45e4 79c0
00000060: 2351 86c0 fc0d 98c0 9580 e9bd 9b1a 89c0
00000070: e1b9 59bf c813 8ac0 33b5 6ec0 31e9 90c0
00000080: 1951 1dc0 27d4 b3c0 d005 efbe 7c16 8dc0
00000090: 459c 63c0 a70c 72c0 f451 8fc0 1380 12c0
000000a0: 7c53 013f 106b 63c0 19cc 73c0 87fb 7fc0
000000b0: 5384 84c0 4b2e acc0 3227 73c0 a2ea f0bf
000000c0: dee0 d73e c034 abc0 5f27 9cc0 d496 23c0
000000d0: f361 8940 e540 8ac0 c6ca 6a3f 27cf 5940
000000e0: 76ea 4dc0 0750 94be 2a6e f1be fd2c 36c0
000000f0: 827a 36c0 4410 77c0 da38 10c0 4d75 4cc0
00000100: dd2e 7fc0 8289 90c0 5022 9dc0 3f6e d33f
00000110: bdfd ca3e 23aa 90c0 af15 64c0 6143 f1bf
00000120: 2b12 29bf 3ea2 febf f868 82c0 18a3 92c0
00000130: 4779 0140 e2ae 74c0 51d2 83c0 f51b 81bf
00000140: b58a 03be c07f fb3f 9f4d aebf 6b96 2fc0
00000150: 2537 8ec0
-4.180043 1.0268326 -1.6018367 -1.4283267 -3.5819366 -3.4355733 -1.9745039 -4.0303607
-3.7353442 -3.1836898 -3.5974483 -0.5353861 -4.08772 -2.9263387 -0.554737 0.95521677
-1.577977 -3.9564743 -1.6908654 -4.685493 2.6652064 -3.342149 -3.4895818 -3.9045575
-4.1974044 -4.751707 -0.11401478 -4.2844977 -0.85049254 -4.3149147 -3.7298095 -4.5284657
-2.4580748 -5.6196475 -0.46684122 -4.4089947 -3.556413 -3.7820222 -4.478754 -2.289067
0.5051801 -3.5534096 -3.8093321 -3.999727 -4.141153 -5.380651 -3.7992673 -1.8821604
0.42163748 -5.350189 -4.879806 -2.5560808 4.2932067 -4.3204217 0.9171566 3.4032686
-3.2174354 -0.28967306 -0.4715436 -2.8464959 -2.8512273 -3.8603678 -2.25347 -3.1946595
-3.9872353 -4.5167856 -4.9104385 1.651802 0.39646712 -4.5207686 -3.5638235 -1.8848687
-0.6604335 -1.9893262 -4.0753136 -4.582409 2.0230272 -3.823174 -4.1194234 -1.0086657
-0.12845881 1.9648361 -1.3617438 -2.7435558 -4.4442315

encoder.2.weight f4 [51, 85]
00000000: ca8c df3c 8a57 e43b 6b84 1c3d 7cb0 373c
00000010: d3c3 7f3d 2a61 023e c180 29bd 79a9 263e
00000020: 5bdf c43e 8ed5 fb3c ec1b f33b 2861 e7bb
00000030: b847 d33c 2dfb a03d 9338 6a3d 3de3 a9bd
00000040: aff5 03bc 78ba 383e b2c6 94bb c000 5c3e
00000050: e177 10c0 bb17 ba3d 6d84 d03a 30e2 963c
00000060: 833c 1a3d 2ff1 0bbf 6423 353d 074d 183e
00000070: 087f 533c a845 213b fb3d 363d e0fd 233e
00000080: ddd9 cebc 9378 533c f73e b83c 18ee a93d
00000090: ccad 01bd 7e85 703d 288c c8ba 787f 35bf
000000a0: 5482 a139 8732 6a3c 50c1 69bc e2fa 943c
000000b0: 8c97 843b a5da 093c 2065 e73c 6d37 07bc
000000c0: dd2d c73c de7c 263c 44e7 263b 369c 79bd
000000d0: e219 853b 52de 81bc 075e 773c ac16 a0be
000000e0: a537 7e3b 558b 9ac0 0b50 b23d bcd1 5a3c
000000f0: be44 c33c 9eea 9c3a a8a0 d03d 46ce 723f
00000100: 8d63 a0be e94c 81be 52f4 f5bd 657d 8eba
00000110: 57aa 2e3d 6688 fc3c 7096 a43c c816 b5bc
00000120: b604 28bd cf95 3f3c bb54 fe3d 4b9e 453b
00000130: 3365 a7bc 7587 9b3d efe4 55bc 146e 06c0
00000140: b4a4 dfbd 50b7 a53c 0001 37c0 e46f 44be
00000150: a549 e43d ab51 793d 7558 f7bc d113 763f
00000160: d0aa d1be 7b54 103e 5819 c1bb 4a64 ca3c
00000170: 2605 20bd f120 43be 98c4 9a3d 7fb8 893d
00000180: 0a2c 3bbb 1d81 a43d c0cb 4ebd e4f6 8f3d
00000190: 5a2c bd3c ff41 ff3d e276 cb3e c6ef e7bc
000001a0: d52c 3ebe e00d 263e 9021 b53d 1dc9 36be
000001b0: b06b 43bd 1809 053e dec8 3c3c fdbf c13b
000001c0: 2368 08be f3ff de3d 7dac 063d c78b fb3b
000001d0: 3636 543e 9f1d a03d b5a6 a0be 9fbe da3c
000001e0: c158 233e d041 633e 408f 62bb 20e4 ef3c
000001f0: a73d a83c 5cba 6ec0 f003 e83c fb20 e8bd
00000200: ea08 713d f5b9 ebbe 934d 7bbd ebbf f3bc
00000210: e1fe f1bc 0372 623e 728c a3be 56f0 38bb
00000220: 0a1c 2abd cbc8 bc3e 4301 0cbe 5b91 d93e
00000230: ff4b a23d 4ad4 1ebe 630a 043d d2d3 ba3e
00000240: 0e03 f83e 90d8 cb3c 863e 363c 0e5d 9d3d
00000250: 7acd f23c a3c0 d13d fd53 8d3e d3f9 203e
00000260: 7463 493d fc3a c33d 2ebc 8dbd e3d6 f039
00000270: a45b 553a 08c9 033d 73a9 18bd d1a7 e5bc
00000280: 9e03 ae3d 67e5 afbe 3cc1 24bc 3f27 42be
00000290: ca51 4a3c f280 eaba aa87 e83d 20d1 32bc
000002a0: 8e27 ea3b 8d4e 3d3d 1499 b9be 92b2 37bc
000002b0: 19d9 07c0 36b7 a2c0 4719 58bd 2766 aa3e
000002c0: d0fa b13c d704 bfbc 828d 463f 660e 2dbe
000002d0: 81d2 63bd 5247 8c3d f96a e53d 0d4b 0dbe
000002e0: 3471 5c3d e12b 8bbd 5fac 5fbe 815c b63d
000002f0: ca2f 81bd 6f25 bbbe cd19 813e f091 1c3d
00000300: 100a 90be 6192 f23d ddd9 7e3d 8839 01be
00000310: 6769 973b 1914 3e3d 2f9e 8cbc 13c5 b4bd
00000320: d66c 4a3d e824 203d 2509 8bbd 478a 5cbe
00000330: 3492 923d d47d 6f3b 2e79 0b3d 70f2 b4bd
00000340: c17c bd3d 960e a53d f4ce bdbf ed13 903e
00000350: 50bb febd 170d 133f 1861 b1bf 1d0f 6fbf
00000360: 321c 4ebd 8bb2 173e 5dcb 013e 8c5c c7bd
00000370: aba8 7bbd 343a 823e 00e5 e53e 530e 833d
00000380: 07d6 e1bc c76f ce3d 1dfb 0d3e 0179 1a3e
00000390: 5a6c ba3e 4ef8 ac3c 6365 52bd 93ad 8abd
000003a0: 66f8 40be 0bab 25bd 84a5 f6be ae8d 7abe
000003b0: 037d 513c 2763 6bbe 08ea 10bf 1512 b53d
000003c0: 1221 38be f4c6 4dbc bf9e 18be a1d5 bc3c
000003d0: 0a3e 2cbe 3166 3cbd bc80 4ebf 9e1d a1bd
000003e0: e017 85be e309 46bd d6db a9be 2e0f b73c
000003f0: 85f0 e83c 8375 a4bc bbd9 cdbb f41c 6c3d
0.027288813 0.0069684433 0.03821222 0.011211511 0.062442612 0.12732378 -0.041382555 0.16275586
0.38451657 0.03074148 0.0074191 -0.0070611425 0.025791034 0.07860408 0.05718286 -0.082952954
-0.008054181 0.18039882 -0.004540288 0.21484661 -2.2573168 0.090865575 0.0015908607 0.018418401
0.037655365 -0.5466489 0.044223204 0.14873134 0.012908705 0.0024608169 0.044492703 0.16014814
-0.02525037 0.012907165 0.022490961 0.08297366 -0.031659886 0.058721058 -0.0015300559 -0.70897627
0.00030805415 0.014294273 -0.014267281 0.018186036 0.004046386 0.008413945 0.028246462 -0.008252961
0.024313862 0.010161607 0.0025467435 -0.06093999 0.0040619234 -0.01585308 0.015098101 -0.31267297
0.003879049 -4.8295083 0.08706673 0.013355669 0.02383649 0.0011971777 0.10186893 0.94846
-0.3132595 -0.2525399 -0.12009491 -0.0010871111 0.042642917 0.030826759 0.020091265 -0.02210559
-0.041020118 0.011693432 0.12418505 0.0030154164 -0.020433998 0.07594196 -0.01305507 -2.1004686
-0.109200865 0.020229012 -2.859436 -0.19183308 0.11146859 0.0608689 -0.030193547 0.9612399
-0.40950632 0.14094727 -0.005892914 0.024706025 -0.03906741 -0.19055535 0.075570285 0.06724643
-0.0028560185 0.08032439 -0.05048728 0.070295125 0.023092438 0.1246376 0.39739138 -0.028312575
-0.1857179 0.1621623 0.08844292 -0.17850156 -0.04771012 0.1299175 0.0115225 0.0059127794
-0.13320975 0.10888662 0.03287934 0.007676575 0.20723805 0.0781815 -0.31377187 0.026702223
0.15951826 0.22193074 -0.0034570247 0.029283583 0.02053721 -3.7301245 0.02832219 -0.113344155
0.05884639 -0.4604031 -0.061353277 -0.0297546 -0.029540481 0.22113805 -0.3194309 -0.0028219423
-0.041530646 0.36871943 -0.13672356 0.4249371 0.07924651 -0.1551067 0.032236468 0.3648973
0.4843983 0.024883538 0.011123305 0.076837644 0.029638994 0.10241821 0.2760314 0.157203
0.04916711 0.09532735 -0.06920658 0.0004593647 0.00081389607 0.03217414 -0.037270974 -0.028034123
0.08496784 -0.34354708 -0.010055836 -0.18960284 0.012348602 -0.0017891212 0.11354001 -0.010914117
0.0071458286 0.04621749 -0.36249602 -0.011212008 -2.1226256 -5.0848646 -0.05275848 0.3328106
0.021726042 -0.023317738 0.77559674 -0.16900024 -0.055620674 0.06849541 0.11202044 -0.13798161
0.053818896 -0.067954786 -0.21843098 0.089043625 -0.06307943 -0.36551997 0.25214997 0.038225114
-0.28132677 0.11844326 0.06221949 -0.12619603 0.0046207192 0.046405885 -0.017165272 -0.088266514
0.0494202 0.039097697 -0.067888536 -0.21537124 0.07156792 0.0036543505 0.034051113 -0.08835304
0.092523105 0.08059423 -1.4828782 0.28140202 -0.12438071 0.5744185 -1.3857756 -0.93382436
-0.050319858 0.14814202 0.12675233 -0.09734449 -0.06144015 0.2543503 0.44901276 0.063992165
-0.027567877 0.100799136 0.13865323 0.15085222 0.3641079 0.021114495 -0.05136622 -0.06771388
-0.18844756 -0.040446322 -0.48173153 -0.24468109 0.012786153 -0.22987042 -0.56607103 0.088413395
-0.17981365 -0.012559641 -0.14904307 0.023051085 -0.16820541 -0.045995895 -0.80665183 -0.07866977
-0.25994778 -0.048349272 -0.33175534 0.022346105 0.028435001 -0.020075565 -0.006282059 0.0576448

encoder.2.bias f4 [51]
00000000: 9e2e 7d40 5d3a 4d40 456e fa3f 6a0f 283e
00000010: 0bf1 ccbe 5c91 7e3d d324 9a3f 5661 aa3d
00000020: f281 7e40 1bea 7ebe f77b d13f d028 8140
00000030: 9dae 29be f17e 1e3e e8c8 f23e 1765 2d40
00000040: 61d0 1740 c3e3 5a3e dbff 2a3d 321f 0a40
00000050: dac5 313e 8aff 2040 b6b7 cabf fc3b c33f
00000060: 084f 853f 299b 81bd 529c 01be faa7 c63d
00000070: d24f a1bf 9c05 cb3d fe00 e8bd 52b4 7740
00000080: 20ed 12be 76c8 9ebe 668b 25be 5238 ebbe
00000090: 4e17 713f c153 0040 34a0 4abd 2342 983d
000000a0: 0e15 2140 4688 2f3e 62ef 15bd a47c d33e
000000b0: 1919 1640 77b3 13be 97f8 4640 168e f3bd
000000c0: 39e6 ecbe 8b68 18be b30b 0440
3.9559703 3.2066872 1.9564902 0.1641213 -0.4002765 0.062150344 1.2042488 0.083193466
3.9766812 -0.24893992 1.6365956 4.036232 -0.16570516 0.15478112 0.47418904 2.709295
2.3720934 0.21375947 0.04174791 2.158154 0.1736063 2.5155969 -1.5837314 1.5252681
1.0414743 -0.063284226 -0.12657288 0.09700008 -1.2602484 0.09913179 -0.11328314 3.8703809
-0.14348269 -0.31012315 -0.16166458 -0.45941406 0.94176185 2.005112 -0.049469188 0.074344896
2.51691 0.17141828 -0.036605246 0.4130603 2.3452818 -0.14423929 3.1089227 -0.11892335
-0.46269396 -0.1488363 2.063214

encoder.4.weight f4 [30, 51]
00000000: 47df 97bd 8cac d8bc 4fea 90bd 9a0a 08be
00000010: 2a2a 4fbe f554 b5be 9274 803d af61 a53d
00000020: 41c5 ad3c 0c58 5a3e fea9 cb3e a2d3 5e3f
00000030: 2acd debc db30 69bf 5293 deba b7f8 b03c
00000040: 66fe f53d 92c3 7abd 5d82 9c3d bf1a 8bbc
00000050: 7981 8abf 868b 97bb 426b 513e 3e24 46bf
00000060: f2de 13bc d73d dc3d a020 a4bb a9b8 dbbd
00000070: 5e88 d9bd 3675 9e3d 92bb c43d e0a3 a53e
00000080: afef 1e3e a0e2 3c3d e5c4 0a3e aa04 9abe
00000090: aa6a ee3c bc0a 0d3d badd 1d3d a61e b0be
000000a0: 5744 593d 21e7 4f3e a399 babd 251a 163e
000000b0: 4c19 1dbd c450 a03c 3932 bb3c 7231 533e
000000c0: 6739 84be db7a 50be c287 8f3c 51e6 a43e
000000d0: 65d0 0d3b ce5d 7a3d 2e24 7c3c 632d 80be
000000e0: 21dd 04be 0e9e 23bd 3423 53bc c70f 803c
000000f0: b74e 5bbe 6175 a43d bc47 33be c696 cdbd
00000100: 381d 66be 29c2 e13d ab51 4dbc d003 823c
00000110: 4fd2 65bd 58d8 0ebe 240d 943c 3334 413e
00000120: 29bb f0bc ebed 90be 29e5 933e 2912 933c
00000130: 4ce1 25bd 95d1 a4bd a324 4cbd 891f b2bd
00000140: 90cb e2bd e430 4e3e f2a5 d2bd baa5 cbbd
00000150: 7fe3 ddbc 7baa 383d 01ba 05be f00f 88be
00000160: 16fe 6fbc 8da8 8bbc 5a59 5f3e 42f8 923b
00000170: e811 663e f0ba 13bd 7edc 383e f64d 81bd
00000180: 0b0a 06bd aec7 81bc af75 993d 55ef 0fbe
00000190: 0147 e2bd 0181 e13b 9e4c bf3c 07aa f1bd
000001a0: 2c9a ac3d c06f a3bc 91a8 893e 718e ec3d
000001b0: b7d0 93bd 99dd 64bc b7e9 d23c ebb4 3b3e
000001c0: 90f2 d5bc a085 b3bc f465 16be ad1f ad3e
000001d0: 4111 65bc 4e33 ac3e 80e9 abbd a6c6 093c
000001e0: 348f 9b3a 1063 e63c d1bd 5a3d 22fb 6eb9
000001f0: d598 82bd 399c 743d 2d22 923d fda3 99bc
00000200: b62d e8bd fd6a 61bc 0690 323e 67b5 a5bd
00000210: f10c 2ebe 6406 a2bc 18a2 083d 6ab3 2b3e
00000220: 348c 913d 028c 163d f76d babe a99b 443e
00000230: ab8f 44be cdd3 1c3e cc8d 87bb d4c2 8d3e
00000240: 9695 503d cd7f 493d 8565 ca3d a8b0 1e3e
00000250: 8467 4dbb 5341 703e 0a6c f2bd 00e6 a03b
00000260: fa4d 8f3d a630 ac3d cee7 173d 4019 37bc
00000270: c2a1 9c3c 7af1 053e a42e 9cbc 7456 8dbb
00000280: 3a2a 063d e1c7 2d3c d0db 3cbe 125b 203d
00000290: b559 4abd 3af6 39bd 3185 83bd 1a1d b73b
000002a0: ffd6 8aba 836c cbbb 6cbc e63a 2c4f b0bd
000002b0: dfe6 113c 0789 033e 21e3 82be ff40 a0bc
000002c0: 553d 233d 1764 9dbc 33a5 4dbd 062c cabd
000002d0: ec61 c63d 8867 fc3d cfae ccbd 4def dcbd
000002e0: bec5 0dbd f262 f93d 2753 65bb 9042 813d
000002f0: 40e8 643d b75c 6a3c d5f6 6f3c 1dda d0be
00000300: d71a 0e3c 4ebf 30bd 7e9d 8f3e 7711 45be
00000310: 9590 a5bd 7f4c 18be a70b 20bd d803 4c3b
00000320: 2bf6 dc3d a2cb 6ebe dbe4 07be 985e 033e
00000330: 3ffe 83be 2661 b8bb c82f 0e3e 9bd2 463d
00000340: 2e19 15bd 656d 48bc b3ae d13c cb40 243d
00000350: 8297 f3bb 977f b13e 9468 1b3a 9ab3 a63e
00000360: 7500 cfbc bc62 5abe 83b7 07bc ff8c 393d
00000370: eb49 6bbd 1bb5 943b 5255 2e3d b932 1ebe
00000380: 11c4 1ebf f735 6b3c 738e 8b3d ea1f 90be
00000390: 5f2f 993d 6c64 f83d a892 153e ac0a a33c
000003a0: ba9e 8fbc ef31 263e 2085 a9bb 0c8c 133e
000003b0: dcf0 51b9 aa77 933c 4cf0 f23c 1749 c3be
000003c0: b1b0 ccbd 1660 80bd 01d1 0cbe 457d b3bd
000003d0: 6ef1 c33d 7ba2 913d 664c 233d 8a34 513e
000003e0: 7a19 67bc 51b2 1bbc 692b 0abd 4084 e23e
000003f0: 2e27 aabe 76c2 653e be65 093c f8b9 e13d
-0.07415634 -0.026449464 -0.07075941 -0.13285294 -0.20230928 -0.3541638 0.06272234 0.08075272
0.021212222 0.2132265 0.3977813 0.87041676 -0.02719744 -0.9109017 -0.0016981161 0.021602971
0.12011413 -0.061221667 0.07642052 -0.016980527 -1.0820762 -0.004624787 0.20451072 -0.7739905
-0.009025322 0.107539825 -0.005008772 -0.107285805 -0.10621713 0.077372 0.09606089 0.3235159
0.1552112 0.046114564 0.13551672 -0.30081683 0.029103596 0.034434065 0.038541533 -0.34398383
0.05304369 0.20303012 -0.09111335 0.14658411 -0.038354203 0.019569762 0.022851096 0.2062433
-0.25825045 -0.20359366 0.017520789 0.32206967 0.0021639105 0.061124615 0.015389485 -0.25034627
-0.12974979 -0.039945655 -0.012886811 0.015632523 -0.21416746 0.08030201 -0.17507833 -0.100385234
-0.22472084 0.11023361 -0.012531678 0.015870959 -0.05610877 -0.13949716 0.018072672 0.18867569
-0.02938612 -0.28306517 0.28885773 0.017952995 -0.040498063 -0.08047787 -0.049839627 -0.08697421
-0.11073983 0.20135838 -0.10285558 -0.09943719 -0.027086018 0.045084458 -0.13059236 -0.2657466
-0.014647981 -0.017048145 0.21811429 0.004485161 0.22467768 -0.03606695 0.18052861 -0.06313698
-0.03272442 -0.015842285 0.074931495 -0.14056142 -0.11048699 0.0068818335 0.023351964 -0.11800008
0.084278435 -0.019950747 0.26886418 0.11550606 -0.072175436 -0.013968849 0.02574621 0.18330733
-0.02611664 -0.021914303 -0.1468733 0.3381323 -0.013981164 0.33632892 -0.08394146 0.008409178
0.0011868239 0.028123409 0.05340368 -0.00022791003 -0.06376807 0.059719298 0.07135425 -0.018754954
-0.11336844 -0.013758418 0.17437753 -0.080912404 -0.16997124 -0.019778438 0.03335771 0.1676766
0.0710682 0.036754616 -0.36412022 0.19200005 -0.1919543 0.1531517 -0.0041367766 0.27687705
0.050923906 0.049194146 0.098826446 0.15497077 -0.0031342218 0.23462419 -0.11837013 0.0049102306
0.06997295 0.084077165 0.0370863 -0.011175454 0.0191201 0.13080397 -0.019065209 -0.0043132845
0.032755114 0.010606737 -0.18443227 0.03914935 -0.049401958 -0.045400836 -0.064218886 0.005588186
-0.0010592638 -0.006208004 0.0017603762 -0.08608851 0.008905142 0.1284524 -0.2556391 -0.019562243
0.039853413 -0.019212766 -0.050206374 -0.09871678 0.09686646 0.123244345 -0.099942796 -0.107878305
-0.03461241 0.121770754 -0.003499219 0.06311524 0.055885553 0.0143043315 0.014646252 -0.40791407
0.008673391 -0.043151192 0.28049845 -0.19244944 -0.080842175 -0.14872931 -0.039073613 0.003113022
0.1078914 -0.23319867 -0.13270895 0.12829053 -0.25779912 -0.0056268154 0.13885415 0.048540693
-0.036400966 -0.012233113 0.025595998 0.040100854 -0.0074338326 0.34667656 0.0005928364 0.325589
-0.025268773 -0.21326727 -0.008283499 0.04530048 -0.05744354 0.004538191 0.042561837 -0.15449037
-0.62017924 0.014356128 0.068142794 -0.28149348 0.074797384 0.12128529 0.14606726 0.01990255
-0.017531741 0.16229986 -0.0051733404 0.14408892 -0.0002002152 0.018001396 0.029655598 -0.381417
-0.09994639 -0.06268327 -0.13751604 -0.08764128 0.095675334 0.07111069 0.03986778 0.20430198
-0.014105195 -0.009502963 -0.033732805 0.44241524 -0.33233017 0.22437462 0.008386074 0.11021799

encoder.4.bias f4 [30]
00000000: 6579 46bf 3ce2 073f 7dcb 8bbf 4682 203f
00000010: 1950 d33e 8ff2 06bf dfe4 bbbc ee57 17be
00000020: cfa9 8b3c ce3f 24be cf26 e2be 4af7 fb3e
00000030: d8f9 d63d 372b 40bf aedb cf3e 9ff5 003f
00000040: 3c4c 98be 85fb e13e 0f07 5fbe e83e 2f3e
00000050: 64f0 4b3f d27d e53c a122 61be 1486 38bf
00000060: db6d f13e 062d 973e 3687 fdbe 27f2 813e
00000070: c751 503e d64a e0bb
-0.77528983 0.5307958 -1.0921475 0.6269878 0.41272047 -0.52713865 -0.022936283 -0.14779636
0.017048744 -0.16039965 -0.44170234 0.49212104 0.10496873 -0.7506594 0.4059729 0.5037479
-0.29745662 0.44137207 -0.21780036 0.1711384 0.7966368 0.028014097 -0.21985866 -0.72079587
0.47154126 0.29526538 -0.4951722 0.2538006 0.20343696 -0.0068448586

decoder.0.weight f4 [51, 30]
00000000: b02c 9abe 62d2 523e 7274 3bbe ba91 973a
00000010: 2de7 923d a604 0b3d 5b74 9d3d 9dc1 05bd
00000020: d5a6 4a3d 5afc 94bc 79d1 01be 50d2 4b3d
00000030: ef86 c63c 105e 9bbd 4380 863e 9963 533e
00000040: 1913 09be 5180 d53d 8cea 3e3d 6304 c9bd
00000050: 278d c23d d1da a1bc 96cd f8bd 90e0 9ebc
00000060: ff87 2b3c 91fc 213d 2d5e ccbc 51dc 77bc
00000070: 9983 f4bd 9d43 14be 5629 66be 798d a4bd
00000080: 218d b6be e13d 8fbd 44d8 9b3e de84 cdbd
00000090: 7de6 423e b78a 9ebc 9000 ff3c 1a79 47bd
000000a0: e0fe debd 57d8 6f3d 8986 063e 919b bdbd
000000b0: c8c5 4c3e 0324 9c3e 5923 1ebe 554c 02be
000000c0: 0b46 0f3e 4410 40be eecd 09be dc47 673c
000000d0: c7a3 853d f435 773e 0c9c d73e 8545 c53d
000000e0: 0939 903e 75a6 6abe 9ed5 663e 047d d93d
000000f0: 0f26 abbe 350f 0abe 44c1 38bb 7ceb 143d
00000100: 3cb9 3a3d 6cec 2c3e 9f18 8f3d 30b5 093d
00000110: 17f7 a6be ded1 f23c e0fe e93c 13f1 76bc
00000120: e44b d3bd d647 b0bd 4d83 483e 2438 5d3e
00000130: 533e 59bd 1300 f23d 838c 82bd 6fe1 163d
00000140: acba 263e 7ff4 80be 60be c5be 4e06 183e
00000150: e1cd 3bbe 81b9 973d 1388 503e 679f 283e
00000160: ca9d b63d aa42 a23e 2656 2a3e f0aa 27bd
00000170: a8a1 f03d 4a2b 7dbf f852 15be af5f a73e
00000180: 06d3 98ba c450 9f3d f3cc 9e3b bed6 3b3b
00000190: be9b 3fbd feb9 d6bc 71d8 edbe c193 003f
000001a0: d046 08bf 1ad7 a33e 890d ad3d b96c d6be
000001b0: f0bd a93d 4c14 5a3e 7da1 df3e 4bb8 01bd
000001c0: 9f14 c5bb 0e5a b13e a9aa 8f3e 2122 a93c
000001d0: 2ff6 60be bdb7 31bf df9b 833f 5b77 253a
000001e0: fb20 08be c62b 7cbd 8e51 05bf 1e37 cc3f
000001f0: e210 60be b3f3 6d3d ef79 403c e0f7 15bd
00000200: 3792 86bb e304 353c 1f9b dc3d de27 dd3d
00000210: e4fd d7be f2d5 eb3d 9758 3e3f fcd8 693e
00000220: ba42 183d 46e5 5b3d 7d7d 063d 7cc0 803e
00000230: 3319 123e e686 5abd 13dc d43c 521d b4bd
00000240: fd99 153f a79b 62bd 0c51 75bd c122 46be
00000250: 7639 17bf 0e05 60bb 0148 22bf aad2 763d
00000260: 2ff9 ca3b 59fe 423f 65d1 c8bd 2982 973e
00000270: ab7d 84bb ccad 663c 529b 873c 0a7c d5bc
00000280: dc8e 12be c07e 89bd b4ca 21bf a898 893e
00000290: 4d78 2ebe 356f d93b ba31 6cbe c6eb c5be
000002a0: 54ce febd e042 d7be a565 f13d 52a3 0ebd
000002b0: 93f2 11bd 6fc3 723e c399 f43e 12e0 2d3e
000002c0: e9fb 94be 046b 2e3e 20ac 2fbf a6b6 b4bc
000002d0: 9e44 cfbd b724 42bd 2242 05be a192 20be
000002e0: 69e0 733b 57bd c83e 92da c33a c85d b4bd
000002f0: 4c15 d93a 3a23 b3bc f916 c1bd 206d c23e
00000300: 605b 6abe 0f70 083e ef97 b1bd 54f8 5ebe
00000310: 6049 47be e312 a0be ff0a 4c3d fd5b c8be
00000320: 6fb3 933c a732 0abd 9b2f 04bc 26a9 bf3d
00000330: cd90 2fbe 2438 34bc 0751 dabd e4eb 2b3e
00000340: f483 1a3e 1223 593b 22a7 2fbf 030f 153e
00000350: b055 6abe 39b9 42be 2a04 423e 8fd3 ad3d
00000360: 79cc 843e c7e6 63ba bdfc ed3d 6df6 1cbd
00000370: bc96 0e3e a973 dd3d 8dcf 24be 4894 8fbe
00000380: 0c9c 813e 833c 343e 5135 88be 1a72 90be
00000390: f9d4 a1be 01b9 563d b3c6 093c 8f84 b33d
000003a0: b54e 7bbe 07bc e03d cf80 6abe a2d6 b1bd
000003b0: aa0d ed3b 7410 973e 5db3 e63d 2b2a cd3d
000003c0: 3ac4 3bbf 04d0 a7bd af93 13bf a395 1b3e
000003d0: 2c5d 863e fb7c 4b3e 1181 02bf 76e8 02be
000003e0: 0fa9 c0bd 94fd 113e 30f5 13bd e739 c9bb
000003f0: d786 97be 1b68 a73e ddf0 d03e 3c47 3f3e
-0.3011222 0.20588067 -0.18306139 0.0011563816 0.071729995 0.03393998 0.07688209 -0.032655347
0.04947551 -0.018186737 -0.12677564 0.049761117 0.024234263 -0.075863004 0.2626973 0.20643462
-0.13386191 0.10424865 0.0466104 -0.0981529 0.09499579 -0.01975766 -0.121485874 -0.01939419
0.010469436 0.039547507 -0.02494725 -0.015128211 -0.11939163 -0.14478917 -0.22476706 -0.08034796
-0.35654548 -0.06994224 0.30438435 -0.10035108 0.19033237 -0.019353254 0.031128198 -0.048699476
-0.10888457 0.058555927 0.13137259 -0.092581876 0.19997323 0.30496225 -0.15443172 -0.12724431
0.13991563 -0.18756205 -0.13457462 0.014116254 0.06525379 0.24141675 0.42111242 0.096324004
0.28168514 -0.22915061 0.22542426 0.10619548 -0.33427474 -0.13482364 -0.0028191367 0.036357388
0.04558681 0.16887063 0.06987118 0.03362006 -0.3261039 0.029641088 0.028563917 -0.015072125
-0.10317209 -0.086074516 0.19581337 0.21603447 -0.053037953 0.118164204 -0.06374457 0.036836084
0.16282147 -0.25186536 -0.38621807 0.14846155 -0.18340255 0.07408429 0.20364408 0.16467057
0.089168146 0.31691486 0.16634426 -0.040934503 0.117495835 -0.9889418 -0.14582431 0.32690188
-0.001165957 0.07779077 0.004846209 0.0028661932 -0.046779387 -0.026211735 -0.46454194 0.50225455
-0.5323305 0.32000047 0.08449847 -0.41879824 0.08288181 0.21296805 0.43677893 -0.031669896
-0.006014421 0.3463902 0.2805989 0.020646157 -0.21968912 -0.6942099 1.0281943 0.0006312036
-0.13293831 -0.061565183 -0.5207757 1.595432 -0.2188144 0.058093738 0.011747821 -0.036613345
-0.0041067856 0.011048528 0.107717745 0.1079862 -0.4218589 0.11515416 0.7435393 0.22836679
0.03717301 0.05368545 0.03283452 0.25146854 0.14267425 -0.053351305 0.025983846 -0.08794655
0.5843809 -0.055324223 -0.059891745 -0.19349195 -0.59072053 -0.00341827 -0.6339112 0.0602595
0.006194256 0.76169354 -0.09805564 0.29591492 -0.004043301 0.014079522 0.016553555 -0.026060123
-0.14312309 -0.06713629 -0.63199925 0.2687428 -0.17038079 0.0066355714 -0.23065844 -0.38656443
-0.12441698 -0.4204321 0.11786965 -0.034823723 -0.035631727 0.23707364 0.4777356 0.16980007
-0.29098442 0.1703301 -0.68622017 -0.02205975 -0.101205096 -0.047398295 -0.13013509 -0.15680934
0.0037212616 0.39206955 0.0014942458 -0.0880695 0.0016562133 -0.021867383 -0.0942821 0.3797388
-0.2288642 0.13323997 -0.08671557 -0.21774417 -0.19461584 -0.3126441 0.049815174 -0.3913268
0.018029897 -0.033739712 -0.008067991 0.093584344 -0.17145081 -0.010999713 -0.10659986 0.16789204
0.15089399 0.0033132476 -0.686144 0.14556508 -0.2288425 -0.1901597 0.18946901 0.08487617
0.2593725 -0.00086937513 0.116204716 -0.038320947 0.13924688 0.10813076 -0.160948 -0.28042817
0.25314367 0.17601208 -0.26603177 -0.28212053 -0.31607798 0.052422527 0.00840919 0.08765518
-0.24541743 0.10973363 -0.22900699 -0.08683516 0.007234295 0.2950474 0.112646796 0.100178085
-0.7334629 -0.08193973 -0.5764722 0.151938 0.2624296 0.19871895 -0.5097819 -0.1278399
-0.09407245 0.14256889 -0.0361225 -0.0061409357 -0.29595062 0.32696614 0.40808764 0.18679518

decoder.0.bias f4 [51]
00000000: a167 a6bf fc65 cbbf b89f d7bf a4ac fbbe
00000010: 6cfc 843e 7d68 953d 028e 4abe f1f1 22c0
00000020: 5129 1cc0 2f30 44bf 6e40 83bf ec8a cfbf
00000030: 72aa 9ebf 4231 97be 0bd5 fcbf 90a0 4ebe
00000040: efab f83c 5d21 093f 21df 4cbd e0e7 2b3e
00000050: 3fbd 1d3f 7b91 0e3e e6c8 b8be 0c1a 57bf
00000060: 28e6 94bf 6e55 45be f073 a1bf ede2 32bf
00000070: 8a6c 04be eaa9 f6bd 3bd1 b7bf 35c2 a73e
00000080: aa14 18c0 61e3 acbc 0bdd 1fc0 15ee 43be
00000090: abf8 83bf 9b5a 18c0 6143 22bf 6a0b ae3d
000000a0: b39b ffbe 1224 1cbf eac1 a83e c223 43c0
000000b0: 938a 9e3d ffd2 15bf c2ed 6dbe 1a01 29c0
000000c0: f8f0 1ec0 6ea3 e23e edac 82bf
-1.3000375 -1.5890498 -1.6845617 -0.49155152 0.25973833 0.0729532 -0.19780734 -2.546017
-2.4400218 -0.7663602 -1.0254037 -1.621427 -1.2395766 -0.29529768 -1.9752516 -0.20178437
0.030355422 0.53566533 -0.05001748 0.16787672 0.6161689 0.13922684 -0.36090773 -0.8402412
-1.1632738 -0.1927087 -1.2613506 -0.6987751 -0.1293203 -0.12044127 -1.4360727 0.32765356
-2.3762612 -0.021104516 -2.4978664 -0.1913379 -1.0310262 -2.38053 -0.6338406 0.08498271
-0.49923477 -0.6099254 0.32960445 -3.0490575 0.07741275 -0.5852508 -0.23235229 -2.6406922
-2.4834576 0.44265312 -1.0209023

decoder.2.weight f4 [85, 51]
00000000: 0c14 edbe 00ef 8a3e dfaa 45bf 7f69 80bd
00000010: 5803 9ebd a9be 8dbf 5c27 6d3f cf01 803d
00000020: 94d6 ba3e 38b6 8dbd 6b70 e7bd a0ae 053c
00000030: 9747 af3e 33fb 5dbe 9887 8cbd 3ac4 b83d
00000040: 2ffb 8ebd 41f8 3dbd 0a9e 86ba 0e0a 26bd
00000050: e43d cfbc bf52 f6bc c211 33bd ea29 513d
00000060: c044 ab3e 8640 973e daf9 353c 337a 38be
00000070: 9f29 df3c 3136 79bc c5b9 e2be 1e37 b3be
00000080: 0ec3 d4bd fd90 543e 0fe4 923d f0f8 cb3e
00000090: 9a97 cfbf 0904 d83e 32c0 b1be cb76 2fbf
000000a0: bec4 c1bd a25b 1cbc bcd7 c83c 58e6 8bbd
000000b0: 9ed7 debb 0008 93bf c2d3 8abd 7b16 32be
000000c0: df61 8c3d c26c 0f3d 247d 07bf ef56 db3d
000000d0: 43a2 73be ba5d 08bc ee8c 85bd c6ae 95be
000000e0: 7d83 68bd 6f1a 8bbd 81b2 c9bd 6b44 773d
000000f0: 7098 413c 424e 0ebe 76db c1bc 3807 86bd
00000100: ba9e 53be 697a babd 2eac d7bd 759d 793d
00000110: 9d32 49be bea8 1cbe 2a97 7bbe 1234 b5bb
00000120: 94ad 01bd 7dee a6bc 8a70 39be c139 6dbd
00000130: 0cc8 51be 09ea 1fbe 31e5 aebd ef68 75be
00000140: 2c29 75bd d23c 013d 0573 0abe a249 923d
00000150: 288f 2fbe d01d 80be f52b 04be a555 c2bd
00000160: 1ecf 4cbd b474 2fbd fdc0 b5bb 091d 76be
00000170: 672d 3bbe cec9 53be c53b 393e 7ccc afbd
00000180: a7d6 9ebd f9a3 a3be 065c 38bd 6bf9 063e
00000190: 2710 15be 2751 413d e50e ffbd dece dc3d
000001a0: 04ba 293d 8da0 843c 605c 9bbd fee7 25bf
000001b0: f1c9 d43e 11c6 e0be fc4a 38bd ac26 e43d
000001c0: c643 b6ba fd01 39bc c941 87bf 3522 2b3e
000001d0: 8bef 4d3e aafd 953d 77a5 b23c 780a 06bb
000001e0: 909c d23c c561 d8bb 52c1 683b 025e a5be
000001f0: c59a d4bc 4e56 a9bd e3ba 18bf 138f 3abf
00000200: d71b 243d ecd0 44bf d750 d8bc c4f3 74bd
00000210: ed7e 6c3e 3b3d c13d 327a 58be f6a2 bebe
00000220: 2b87 a13c e1a8 073f d3bc 223e 1e89 adbe
00000230: be7d 773c 0723 9fbe 297d e63d 2981 b93c
00000240: 80a9 9abd a964 acbc 8ab2 753c eea8 293e
00000250: c6a9 ffbd d918 65be 977a 30be 36f5 f5bc
00000260: 1672 713e 88ab 69be a201 3cbe 579b 6bbe
00000270: ebd7 e4bc c9f4 aabe a65c b3bd cde5 ad3c
00000280: 8097 fdbd e15d 8abe 12a9 bd3d 924e dfbd
00000290: 2164 07be 17f3 7bbe 7460 31be dc4c acbe
000002a0: 69d1 95be 4aad dabd 8073 9dbe cdf0 d2bd
000002b0: b00f c6be 5d33 93be ce61 8ebd c743 903c
000002c0: 53ed ce3d d2ea 353e 52c1 55be 7933 febe
000002d0: 52ea 87be 72b1 2dbd 4a42 babe 85d8 713d
000002e0: f50c 52be 32da 86be de23 15be 1375 18be
000002f0: 5c5d d9bd a763 963d 9307 64be f254 e1be
00000300: fa67 0ebd 329a 3abe d025 88bd a266 f8bd
00000310: 808d 313c be7a 3bbe 2499 13bd 5a16 01be
00000320: 6bfc 91be 58cb 3dbc b3f2 9dbe 6494 423d
00000330: e6f0 4cbe 831b 5fbe 64cd 9fbe eaf9 843f
00000340: 9d07 fd3e aa5f 9ebd 60e1 fbbb fbc3 e2bd
00000350: 92c6 de3c 3906 dc3e 7fb1 86ba b2ab d8bf
00000360: 3d28 42bf 4bd7 6d3d eb49 aa3e 21f9 85bb
00000370: 0155 1f3e db9d a03e 58c8 93be 944d 51bd
00000380: ba1e 30bb 2785 8fbd 2fb5 06bb 1809 fbbe
00000390: f2e5 fdbd 0b53 32be 5e3e 40bf cc44 84bc
000003a0: eaf1 543e 4c5a 7c3c 8dae 20be 9b2a 57bd
000003b0: bc90 c53c 20d7 22bd daa5 643d c6bd d23d
000003c0: 633a 8abd 0986 07bd 7742 3dbd 478d 0b3d
000003d0: 208a ffbe dc62 d83c 37ee 8539 1728 b1bd
000003e0: 3df4 55bc de7c 213e e1ff 38bf 5c24 233d
000003f0: 2961 2c3e e7ad 9bbf 242a a4bd 564e cabd
-0.46304357 0.27135468 -0.77213854 -0.06270122 -0.077154815 -1.107381 0.9263818 0.06250345
0.36491835 -0.06919521 -0.11300739 0.00815931 0.34234306 -0.21677856 -0.068618 0.09021802
-0.06981503 -0.04637933 -0.0010270488 -0.040536933 -0.025298066 -0.030068753 -0.043718107 0.051065363
0.3345089 0.29541415 0.011106933 -0.18015365 0.027241526 -0.015210674 -0.44282356 -0.3500299
-0.10388766 0.20758434 0.07172405 0.39838362 -1.621814 0.4219058 -0.34716946 -0.6854064
-0.09461354 -0.009543331 0.024516933 -0.06831044 -0.006800606 -1.1486816 -0.06778671 -0.17391388
0.06854605 0.03501583 -0.52925324 0.10709941 -0.23792367 -0.008323127 -0.06521021 -0.29234904
-0.056766022 -0.06792151 -0.098485 0.060367983 0.011816129 -0.1389704 -0.023664217 -0.065443456
-0.20666018 -0.09105379 -0.105308875 0.06094118 -0.19648214 -0.15298745 -0.24569383 -0.005529889
-0.031659678 -0.020377392 -0.18109336 -0.057916407 -0.20486468 -0.15616621 -0.085398085 -0.2396581
-0.059853718 0.031552143 -0.13520439 0.071429506 -0.17144454 -0.25022745 -0.12907393 -0.09488992
-0.05000221 -0.042835906 -0.0055466876 -0.24034514 -0.18279038 -0.20682451 0.18089207 -0.08583924
-0.077557854 -0.3196104 -0.045009635 0.13181083 -0.14556943 0.047196534 -0.12454013 0.10781644
0.041437164 0.016189838 -0.075859785 -0.64807117 0.4156032 -0.43901113 -0.044993386 0.111401886
-0.0013905696 -0.011291978 -1.0566951 0.16712268 0.2011091 0.07323773 0.021807415 -0.0020453017
0.02570942 -0.006603452 0.0035515619 -0.32298285 -0.025952706 -0.082684144 -0.59660167 -0.72874564
0.040065613 -0.7688129 -0.026405735 -0.059802786 0.23095293 0.09435507 -0.21140364 -0.37233704
0.019717773 0.52992064 0.15892343 -0.33893675 0.015105663 -0.3108141 0.11254341 0.022644596
-0.07551861 -0.021044092 0.01499618 0.16568348 -0.124835536 -0.2237276 -0.17234264 -0.030024152
0.23578677 -0.2281934 -0.18359998 -0.23008476 -0.027934989 -0.3338988 -0.08757906 0.021227742
-0.12382412 -0.2702475 0.09260763 -0.10903658 -0.1322179 -0.2460445 -0.1732195 -0.3365239
-0.2926133 -0.106775835 -0.30752182 -0.10299835 -0.38683844 -0.28750125 -0.069522485 0.017610444
0.1010386 0.17765358 -0.20874527 -0.49648646 -0.2654596 -0.042405553 -0.363787 0.05904438
-0.20512755 -0.26338345 -0.14564463 -0.1488841 -0.1061351 0.07343226 -0.22268514 -0.4401012
-0.03476713 -0.18222883 -0.06647837 -0.12128951 0.010836959 -0.18308541 -0.03603472 -0.12606183
-0.28512892 -0.011584125 -0.30849227 0.047504798 -0.2001377 -0.21787839 -0.31211388 1.0388768
0.4941987 -0.0773309 -0.007686779 -0.110725366 0.027194295 0.42973498 -0.0010276287 -1.6927397
-0.7584265 0.058066647 0.3325952 -0.0040885364 0.1555977 0.31370434 -0.28863788 -0.051099375
-0.0026873783 -0.07007819 -0.0020554771 -0.49030375 -0.12397374 -0.17414491 -0.75095165 -0.016146086
0.20795408 0.015402388 -0.15691586 -0.052530866 0.024116866 -0.03975594 0.05582223 0.10290103
-0.06749418 -0.03308681 -0.046205964 0.03407028 -0.4991007 0.026414327 0.0002554522 -0.08650225
-0.013058719 0.1577029 -0.7226544 0.039829597 0.16833939 -1.2162446 -0.0801585 -0.09878223

decoder.2.bias f4 [85]
00000000: 0829 c7bf d7fa 24be dec7 d63e 2c51 94be
00000010: 1e2e 373f 0e88 acbd c8ce 483f 425f bb3d
00000020: 4dbc 53be e5b9 433e a1b1 8bbd 80b5 f63e
00000030: 2923 7fbe 3906 09be 6095 07bd 1f8e 883e
00000040: 5e4e ef3f ea03 2b3f 7bbb 553f 8b7d 34bf
00000050: 5e8f 06bd 4af9 cbbe 2623 c03e bf92 1a3f
00000060: 487a f53d 134b 133f e8d7 213f 336b e9be
00000070: 9d39 1b3e 4775 ec3e 5c9c 81be 3b22 273f
00000080: 71ac e23e df76 b53e d0a5 66be f407 ca3d
00000090: 8f23 26be aea2 40be 4ea0 13bf b4e7 dc3e
000000a0: f3aa 653f c0d6 3cbe fccb 4a3e d00a 0ebe
000000b0: 583d 4fbe 6402 7e3e 2d1c 0ebb 026b d63e
000000c0: 5300 f13e b9a6 85be bf20 19be 1427 8bbd
000000d0: 8d32 203f e0ea 0c3f 866e 8abe d34e a43e
000000e0: f73e 303f d266 ecbd 4212 2bbe 8641 723f
000000f0: d478 a63e 0e1d 893f cef7 f4be aaf6 ccbe
00000100: 17d7 a33e ef41 463d c2c3 9cbf 83a7 4fbe
00000110: f572 43be afef 3f3e 2319 49bf 9f5d 33be
00000120: 47aa f1bd 58d1 f63e 127a 043f e1db 523f
00000130: c89c 78bb c3ab 483e 8015 d6bd 1a0e 653d
00000140: 5da5 f9bd 31cd 843e 95c5 ca3e c569 883d
00000150: 83c0 adbd
-1.5559397 -0.16111313 0.41949362 -0.2896818 0.71554744 -0.08424388 0.78440523 0.09149028
-0.206773 0.19113882 -0.068209894 0.4818535 -0.24915756 -0.1338128 -0.03310144 0.2667093
1.8695791 0.6680285 0.834892 -0.70504063 -0.03285157 -0.3983863 0.37526816 0.60380167
0.11986214 0.5753643 0.6322007 -0.455896 0.15158696 0.46183226 -0.25314605 0.65286607
0.44272187 0.35442254 -0.2252419 0.09864798 -0.16224502 -0.18812057 -0.5766648 0.43145525
0.8971397 -0.18441296 0.19804376 -0.13871312 -0.20238245 0.248056 -0.0021684275 0.41878515
0.4707056 -0.26103762 -0.14953898 -0.06794563 0.62577134 0.5504589 -0.27037448 0.32091388
0.68846077 -0.11543049 -0.16706184 0.9463123 0.3251406 1.0711992 -0.4784531 -0.4003194
0.32000038 0.048402723 -1.224724 -0.20278744 -0.19086821 0.18743776 -0.7855398 -0.17516182
-0.11800056 0.48206592 0.51748765 0.8236676 -0.0037935246 0.19596772 -0.104533195 0.05592165
-0.12189744 0.259378 0.39603868 0.06660799 -0.08483984

decoder.4.weight f4 [144, 85]
00000000: a12d 22be 6de0 9fbd 32fc ff3d 5c52 5ebd
00000010: e2b0 883d 8d3c 873d fdc5 193f 5f4f 023d
00000020: b6b7 04bc 5afc 31be d789 cc3e fb26 6f3c
00000030: bff5 3abe a806 5cbd 6b1e 88be 7126 e93e
00000040: 57fb 1f3f bd3c 803e 639e 8a3e 20d7 0bbf
00000050: 97a0 a3be 14b4 77be 9798 58be 8264 2e3e
00000060: bd0b 8d3e a4ac ee3e 6660 dabd bac2 d0be
00000070: 8461 2d3e 51d8 633d 420c 4e3e 7521 2fbd
00000080: a340 9bbe 3712 03be 4fe8 6c3c 6c8b ffbd
00000090: ffd8 ccbc 6378 cf3d 3ae9 a13e 56d8 ef3c
000000a0: 41bf a53c 009b a1bc 32a7 f33e 7c1b 1fbd
000000b0: 0975 cb3c 38cb fcbe 3ba5 24be 803f 3d3d
000000c0: 423a e8bd 0908 63be 4cf2 0e3e 534e dc3e
000000d0: 54db a1be 821a d43c cb62 dabd b680 abbd
000000e0: be52 753e 4400 cb3d d662 b83d 78dd c9be
000000f0: 6ea3 adbe be78 f13d 31b1 93be 2b3b e6bc
00000100: 5e7f 1b3e 7ac1 3fbc e4f6 ccbd 1a67 4d3d
00000110: ec1c 193b 4cd1 05bf 3191 21be 900b d0bc
00000120: 5ffc 30be c9fa 93bf 7017 b9be 704d be3e
00000130: 2e6a 66bd ac4a ab3e f862 b8be 9a2b ca3e
00000140: 4352 373e 9b83 463e 1327 b73e 70e3 573e
00000150: ecb9 2cbe 5ed6 0abe b947 c6bd dcb7 103e
00000160: ce3b 55bd c6fc 993d f857 bd3c 9f88 133f
00000170: c3be 253d a55b ad3d 3c34 30be ddbb d03e
00000180: 4eb9 36bc aee6 60be ec5f b43c 346b fabd
00000190: 855c cc3e 6419 1d3f ae1f 883e aa8b 853e
000001a0: 08e7 02bf 4a00 30be 8b42 17be b792 3cbe
000001b0: 9013 093e 96d0 893e 3a00 d63e 87fd 81bd
000001c0: cd43 d9be e37f 523e 823c 943d d38f 443e
000001d0: 6cac 84bd 18a2 93be 3ad5 16be 6c71 403c
000001e0: b60b 1cbe db4f 263e 7148 f93a ca9d 993e
000001f0: 768a 263d 8c27 af3a 1883 543d 721b be3e
00000200: 6664 4d3d 128f 0a3e 1cf4 d5be 9431 84bd
00000210: a872 f93b 3b1c a4bd 276e 7ebe cd81 4e3c
00000220: cb02 8c3e 44ab 9dbe c466 563d 839e 00be
00000230: af50 07be 1262 6d3e bede e13d 3cb9 d33d
00000240: 42e8 bdbe d4ea 9dbe 5620 433e e827 70be
00000250: be06 85bd 1a7d e83d 9f61 4a3d 9c9c 3bbd
00000260: 564c 87bd bd4e 773d 988e ebbe 5841 33be
00000270: 4d83 de3d a87f 36be b5e2 6cbf 4ca4 afbe
00000280: 4f47 933e 5ffb 70bd f4b7 ac3e 8b32 b5be
00000290: 56f1 b23e 3d2f 513e 94cb 363e 774d b13e
000002a0: b003 b73d e3b9 32be e1be e6bd d4dc 84bd
000002b0: 27f9 1e3e 85d0 4dbd 7db2 ac3d 8395 eebd
000002c0: 6aa0 0d3f 7c26 433d df67 9b3d bcb8 2abe
000002d0: 9748 d33e b08f 0bbd 271b 26be 7eb9 2cbd
000002e0: 92a4 c23c 5389 a13e bc5a 1a3f 47bd 823e
000002f0: 15b7 803e bb6d f0be 737c a8bc 0980 47be
00000300: 77cd 1bbe bbfc c03d 07ad 843e e777 ba3e
00000310: 063b a7bc 6290 f7be 4338 6f3e b4b3 b43d
00000320: f048 453e 19aa a9bd eff7 8cbe f385 27be
00000330: ec5e 70bb ee10 33be a494 a13d bb27 bcbd
00000340: 22f4 903e ae1a 503d 5a59 8dbc d1f7 633c
00000350: c17f 773e 92b6 333d 8543 683e bb71 9fbe
00000360: aebd f8bd e1ad e2bc 35bf 36bd bbd4 88be
00000370: a792 e3bd 1e0a df3d 1f0a 9abe 3a1e 9f3d
00000380: 7927 0ebe a9f1 26be 7ab5 4f3e 9bae e83d
00000390: 4176 653e 033b b2be 3ca6 8cbe 00df 823e
000003a0: 1b25 3cbe ffb3 a13d b20a 9a3d 57b7 d13d
000003b0: d20d f43b aec2 8c3c 0be7 ed3d f367 b8be
000003c0: 7c2f 3dbe d3e1 673e 4cf1 3abe 51c3 21bf
000003d0: 17bc a5be 3049 3d3e 117a 74bd 6da5 aa3e
000003e0: 897c b2be d8de 993e bab9 5a3e f469 213e
000003f0: 2791 aa3e cac3 07bd ea33 26be 25ba b7bd
-0.15837719 -0.07806478 0.12499274 -0.054277763 0.06674363 0.06603346 0.6006773 0.031813975
-0.008100441 -0.1738142 0.39948913 0.014596696 -0.18257807 -0.053717285 -0.26585707 0.4553714
0.6249289 0.2504634 0.27073964 -0.5462513 -0.31958458 -0.24189788 -0.21151958 0.17030528
0.27548018 0.4661609 -0.10662918 -0.40773565 0.1693173 0.055626217 0.20121863 -0.042756516
-0.3032275 -0.12799917 0.014459684 -0.124777645 -0.025005816 0.10130384 0.3162325 0.029277962
0.020232799 -0.01972723 0.47588497 -0.03884457 0.02483608 -0.49373794 -0.16078655 0.046203136
-0.11339237 -0.22171034 0.13959616 0.43028507 -0.31612647 0.025891546 -0.106633745 -0.08374159
0.23957345 0.0991216 0.090032265 -0.3942678 -0.3391375 0.11790608 -0.28846124 -0.028104385
0.15185305 -0.011703843 -0.10008028 0.050147153 0.0023363186 -0.52272487 -0.15778042 -0.025396138
-0.17283772 -1.1560909 -0.36150694 0.37168455 -0.056253605 0.33455408 -0.36013007 0.3948639
0.17902474 0.19386141 0.35772 0.21082854 -0.16867799 -0.13558337 -0.09681649 0.14132637
-0.052058987 0.07518916 0.023113236 0.5763034 0.040465128 0.084647454 -0.17207426 0.40768328
-0.0111525785 -0.21962997 0.022018395 -0.122274786 0.39914337 0.6136687 0.2658667 0.26083118
-0.51133776 -0.1718761 -0.14771478 -0.18415342 0.13386369 0.2691695 0.41797048 -0.06347185
-0.4243454 0.20556597 0.072381034 0.1919549 -0.06478199 -0.28834605 -0.14729777 0.011745792
-0.15238842 0.162414 0.0019018782 0.30003196 0.04065939 0.0013363226 0.051882833 0.37130314
0.050144576 0.1353114 -0.41787803 -0.06454769 0.007612545 -0.08013197 -0.24846707 0.012604189
0.2734588 -0.30794728 0.0523441 -0.12560467 -0.13214372 0.23181942 0.11028813 0.10338065
-0.3709126 -0.30843222 0.19055304 -0.23452723 -0.064954266 0.11351986 0.049409505 -0.04580365
-0.06606357 0.060377825 -0.46007228 -0.17505395 0.108648874 -0.17822134 -0.9253343 -0.34305036
0.28765342 -0.058833476 0.33734095 -0.35390124 0.3494975 0.20428176 0.17851096 0.34629413
0.0893625 -0.17453723 -0.11266876 -0.06487432 0.15524732 -0.050247688 0.084324814 -0.11649611
0.553229 0.047644123 0.07588171 -0.16672033 0.4126632 -0.034072578 -0.16221295 -0.042169087
0.023760114 0.31550083 0.602947 0.25535032 0.2513968 -0.46958718 -0.020567155 -0.19482435
-0.15215097 0.094232045 0.2591326 0.36419603 -0.020413887 -0.48352343 0.23361306 0.08823338
0.19266105 -0.08284397 -0.27532908 -0.16359691 -0.0036677672 -0.17486927 0.07889679 -0.091872655
0.2831126 0.050806694 -0.01725452 0.0139140645 0.24169828 0.043875284 0.22682007 -0.31141457
-0.121455535 -0.027670803 -0.044615943 -0.267248 -0.11111956 0.108906016 -0.30085847 0.07769437
-0.13882245 -0.16303124 0.20284072 0.11361428 0.22408392 -0.34810647 -0.27470577 0.2556076
-0.1837353 0.0789566 0.07521571 0.102400474 0.0074479366 0.017182674 0.116163336 -0.36016807
-0.18475145 0.22644739 -0.1825611 -0.63188654 -0.32370064 0.1848495 -0.059686724 0.33329335
-0.34860638 0.3005283 0.21359912 0.15763074 0.33313867 -0.033145703 -0.16230741 -0.08971051

decoder.4.bias f4 [144]
00000000: 6e20 13bf f783 16bf ba3b 18bf ba2a 18bf
00000010: ac53 16bf 7ad9 12bf caf6 0dbf 29f9 07bf
00000020: b22e 01bf 92bf f3be ad8f e4be 8a2f d5be
00000030: 06ea c5be 6ff1 b6be 2561 a8be c53f 9abe
00000040: 2686 8cbe 0f4d 7ebe 3f1f 64be 7b69 4abe
00000050: 810e 31be 2de6 17be fb68 fdbd 653d cabd
00000060: d4c1 95bd c2bd 3fbd 8914 a5bc 2ead c93b
00000070: a725 ff3c d087 5c3d 326e 963d 7a4e b73d
00000080: 3476 d03d 96c3 e13d a11b eb3d 4052 ec3d
00000090: f851 e53d c38b d63d 0b4d c13d caba a73d
000000a0: 7844 8c3d 421f 623d 891f 2f3d e9f7 003d
000000b0: b8da af3c 7a26 4f3c d5a9 a43b b77d a5ba
000000c0: a413 c4bb 3930 14bc 4c10 31bc f392 46bc
000000d0: 396b 64bc 5bf4 8abc ac82 afbc 9766 debc
000000e0: 26a2 09bd 5718 24bd 0a4c 3bbd 4c00 4cbd
000000f0: 7718 53bd a973 4dbd 6bd5 37bd da27 0fbd
00000100: e742 a2bc c73d 493a 07db d93c 1e0d 6a3d
00000110: 85b0 bb3d b349 043e 83d3 2c3e d960 563e
00000120: 0fb5 7f3e 9ead 933e bbe7 a53e 6fea b53e
00000130: 4a5b c33e c227 ce3e 347a d63e 0d9e dc3e
00000140: e7e9 e03e 1fa8 e33e 9913 e53e 2167 e53e
00000150: b7fc e43e 5658 e43e a803 e43e a05e e43e
00000160: e97e e53e 4928 e73e cadc e83e a7f4 e93e
00000170: 61c1 e93e 02a9 e73e e930 e33e 63f3 db3e
00000180: 5d91 d13e 48b5 c33e d736 b23e 3239 9d3e
00000190: 3834 853e 0fda 553e 8cbc 1e3e 6770 ce3d
000001a0: 7fc8 453d 6844 24ba a6a1 35bd 8efa a6bd
000001b0: ad5e e3bd 04fe 06be dcd9 12be 175e 15be
000001c0: 2e5b 0fbe e23e 02be 93b6 dfbd de74 b4bd
000001d0: b6d1 86bd bc4f 35bd 2452 cdbc 1a66 1cbc
000001e0: 32e4 a43a 438c db3b f25f d93b d287 c23a
000001f0: b4b7 00bc 0494 a5bc b989 0cbd 68bc 48bd
00000200: 48c3 81bd 5019 9dbd 1284 b5bd 1f8e cabd
00000210: 5945 dcbd f5a7 ebbd 77d5 fabd 6f79 06be
00000220: f7df 12be 4791 24be dd49 3dbe 096e 5ebe
00000230: d77a 84be f3ab 9ebe 90ce bdbe f2a4 e1be
-0.5747136 -0.5879511 -0.59466136 -0.59440196 -0.58721423 -0.5736309 -0.55454695 -0.53114563
-0.50461876 -0.47607094 -0.44640866 -0.41637832 -0.38655108 -0.35731074 -0.32886615 -0.30126777
-0.27446097 -0.24834083 -0.22277544 -0.197668 -0.17290689 -0.14833899 -0.12373539 -0.09874991
-0.073123604 -0.046811827 -0.020151393 0.006154678 0.031145884 0.05384046 0.07345237 0.08950515
0.101787955 0.11023633 0.11479879 0.115391254 0.11197275 0.10475876 0.09438523 0.08189924
0.06848997 0.05520559 0.042754684 0.031486426 0.021466598 0.012643451 0.0050251284 -0.0012625967
-0.0059837867 -0.0090447 -0.010807108 -0.012119996 -0.0139415795 -0.01696222 -0.021424614 -0.027148528
-0.033601902 -0.040062275 -0.045726813 -0.04980497 -0.051537003 -0.05015913 -0.044881266 -0.034950115
-0.019807292 0.0007676747 0.026593698 0.057141416 0.09164528 0.12918739 0.1687756 0.20935382
0.24971412 0.28843397 0.3240336 0.3553042 0.38155586 0.40264708 0.4189011 0.43089333
0.43928453 0.44464204 0.44741514 0.44805244 0.44724056 0.44598645 0.4453404 0.44603443
0.44823387 0.45147923 0.4548095 0.45694467 0.4565535 0.4524613 0.44373253 0.42959127
0.40931216 0.38224244 0.34807464 0.307077 0.26016402 0.20883964 0.15501612 0.10080033
0.04828691 -0.0006266297 -0.044343613 -0.08153258 -0.11102042 -0.13182837 -0.1434092 -0.14586674
-0.13999626 -0.127193 -0.10923495 -0.08811353 -0.06582968 -0.044265494 -0.025063582 -0.009545827
0.0012580215 0.00670007 0.006633752 0.0014841503 -0.007856298 -0.02021218 -0.03431103 -0.049007803
-0.06336075 -0.076708436 -0.08863081 -0.09890389 -0.107554145 -0.11506645 -0.122477464 -0.1313226
-0.14343248 -0.16071044 -0.18485208 -0.21721663 -0.2587497 -0.30990562 -0.37071657 -0.44071156
